model/cifar10_pytorch.pth (torch, 251688 bytes, 10 tensors)

conv1.weight f4 [6, 3, 5, 5]
-0.09110956 -0.2563183 -0.1538214 -0.16072884 0.05714305 -0.3584259 -0.31101438 -0.12986438
-0.33533654 -0.15470317 -0.10389874 -0.13794175 -0.02901413 -0.12857942 -0.011117953 -0.23938091
-0.25579688 -0.18891478 -0.23605336 -0.23699437 -0.25320014 -0.3207642 -0.087076955 0.007077463
0.058014 -0.028539946 -0.031838693 -0.19325924 -0.20433496 -0.20300117 -0.039759718 -0.04588474
-0.033775892 0.001319012 -0.18657975 0.23229986 0.19263965 0.28688002 0.12305268 0.09026348
0.05921079 0.030434685 -0.13008185 -0.089046426 -0.21911308 -0.18028092 -0.22884858 -0.34240836
-0.18010464 -0.12011426 -0.101561524 0.1405425 0.007481983 0.019235764 -0.14097783 0.15302102
0.293024 0.1106051 0.14589539 -0.021045607 0.37774667 0.5471439 0.40570164 0.44164285
0.17908503 0.28537774 0.28119847 0.12981434 0.142915 0.09444696 0.0006024767 0.048141804
0.08551182 -0.012164234 0.14975598 0.35734174 0.17236996 -0.12015635 0.12739787 0.26253217
0.19601068 0.685156 0.5040367 0.59973073 0.31028756 0.08188179 0.67450464 0.79334146
0.4375293 0.2498659 -0.43645898 -0.77515614 -0.7022287 -0.5141446 -0.298495 -0.16765028
-0.502443 -0.4952442 -0.39947477 -0.247729 -0.15598296 -0.05670748 -0.3134307 -0.2991464
-0.046565756 -0.17965646 0.2609851 0.33153617 0.14319381 -0.1651874 0.022425339 0.38600245
0.45011812 0.28564754 -0.097047105 -0.46622106 -0.8081976 -0.81217235 -0.47431812 -0.2368906
0.042190094 -0.06296286 -0.12106856 -0.029602427 0.0420811 -0.1747543 -0.28061667 -0.62904996
-0.24475358 0.016486293 -0.24026433 0.07458957 0.048279166 -0.12032943 -0.10377517 0.10885849
0.5285652 0.4083736 0.45209908 0.048362132 -0.08219902 -0.33297825 -0.29362988 0.019326335
-0.020116765 0.36704528 0.34073076 0.055344917 0.30245984 0.44320208 0.09174604 0.17519993
0.041089013 0.14376032 0.2885965 0.044995926 0.30644995 0.24098417 0.013327069 0.01630772
0.12626377 0.18334024 0.3034854 -0.05582161 0.007103937 0.0762467 0.2527979 0.26892743
0.035105053 -0.08174886 -0.015438167 0.05905015 0.14639679 -0.055612605 -0.054510307 -0.15064138
-0.072570205 -0.13449207 -0.4935497 -0.3627213 0.051859487 0.08479259 -0.1983962 -0.36785954
-0.51291025 -0.056220077 0.1610535 -0.16044208 -0.35478562 -0.5760698 -0.07393765 0.08279016
-0.06353746 -0.2770517 -0.4053193 -0.19265045 -0.017135618 -0.09047458 -0.13502955 -0.29150164
0.20042859 0.21060658 0.035636276 -0.12123275 -0.008114333 0.1938327 0.37754413 0.07288728
-0.38122556 -0.31798297 0.12613136 0.3782857 0.23899125 -0.31241983 -0.40513968 -0.010251002
0.2106974 0.17352451 -0.010774773 -0.21763164 0.12150535 0.11368801 0.27464205 0.05665422
0.035626832 -0.06697474 0.048257764 -0.2123635 -0.26204163 -0.10289483 -0.24950151 -0.47304067
-0.7092578 -0.4094558 0.19571994 -0.07845056 -0.4384271 -0.1420335 0.11544556 -0.014942967
-0.0105971815 0.41177696 0.6728891 0.46993032 0.039536946 0.19748938 0.46066013 0.30262133
0.34280288 0.09209992 0.328203 0.36462003 0.1130214 0.009826 -0.09013009 0.10926721
00000000: a697 babd 273c 83be 5b83 1dbe 1a96 24be
00000010: d50e 6a3d 9983 b7be 473d 9fbe 2bfb 04be
00000020: 3bb1 abbe 826a 1ebe ddc8 d4bd 9a40 0dbe
00000030: 0aaf edbc 53aa 03be 1328 36bc 4520 75be
00000040: cff7 82be e072 41be f9b7 71be a7ae 72be
00000050: 73a3 81be 353b a4be 6755 b2bd 10ea e73b
00000060: 17a0 6d3d 9bcc e9bc 4a69 02bd c0e5 45be
00000070: 2f3d 51be 8adf 4fbe 16db 22bd a3f1 3bbd
00000080: 9758 0abd b3e2 ac3a c30e 3fbe 04e0 6d3e
00000090: 5443 453e f0e1 923e 0b03 fc3d 0fdc b83d
000000a0: 0387 723d 2952 f93c 2d34 05be f95d b6bd
000000b0: 2e5f 60be 909b 38be 4857 6abe 2650 afbe
000000c0: 5a6d 38be 77fe f5bd 7dff cfbd 60ea 0f3e
000000d0: 6c2b f53b 5294 9d3c 7e5c 10be 8bb1 1c3e
000000e0: 3e07 963e ed84 e23d 9a65 153e d667 acbc
000000f0: 0368 c13e 9f11 0c3f 20b8 cf3e 031f e23e
00000100: 1162 373e 081d 923e 3ff9 8f3e 0dee 043e
00000110: 4f58 123e 686d c13d 87ef 1d3a 5730 453d
00000120: d220 af3d 7f4c 47bc a259 193e 7ff5 b63e
00000130: c081 303e 8814 f6bd 9674 023e 9e6a 863e
00000140: 06b7 483e 6266 2f3f 8d08 013f f487 193f
00000150: 03de 9e3e a4b1 a73d 56ac 2c3f 6d18 4b3f
00000160: d703 e03e d9dc 7f3e 8d77 dfbe a270 46bf
00000170: 43c5 33bf fb9e 03bf 56d4 98be 84ac 2bbe
00000180: 1ba0 00bf a690 fdbe f587 ccbe acac 7dbe
00000190: ffb9 1fbe 1a46 68bd fd79 a0be b829 99be
000001a0: bcbb 3ebd ddf7 37be d79f 853e 1cbf a93e
000001b0: 66a1 123e e326 29be 58b5 b73c 1da2 c53e
000001c0: e275 e63e 6540 923e a2c0 c6bd 87b4 eebe
000001d0: 0ae6 4ebf 87ea 4fbf d3d9 f2be 7393 72be
000001e0: 85cf 2c3d acf2 80bd cbf2 f7bd ca80 f2bc
000001f0: 3b5d 2c3d cbf2 32be fdac 8fbe 6b09 21bf
00000200: afa0 7abe 430e 873c da07 76be 6bc2 983d
00000210: 60c0 453d 476f f6bd 1488 d4bd 33f1 de3d
00000220: 0d50 073f 5816 d13e 8879 e73e 5f17 463d
00000230: f657 a8bd 207c aabe a856 96be 4352 9e3c
00000240: eacb a4bc 5ced bb3e 4374 ae3e 5ab1 623d
00000250: 04dc 9a3e 62eb e23e 59e5 bb3d 9c67 333e
00000260: f44c 283d e835 133e ecc2 933e a64d 383d
00000270: 02e7 9c3e 8ec4 763e c759 5a3c c597 853c
00000280: 4a4b 013e 8bbd 3b3e 7062 9b3e 33a5 64bd
00000290: 25c8 e83b 3b27 9c3d ba6e 813e dbb0 893e
000002a0: 51ca 0f3d f26b a7bd 5ef0 7cbc 92de 713d
000002b0: 0ae9 153e 0bca 63bd 3346 5fbd bc41 1abe
000002c0: b09f 94bd 4ab8 09be 8cb2 fcbe 9bb6 b9be
000002d0: 9d6a 543d bda7 ad3d 6028 4bbe 1658 bcbe
000002e0: 164e 03bf 0647 66bd 35eb 243e ee4a 24be
000002f0: 76a6 b5be 4f79 13bf 9f6c 97bd e38d a93d
00000300: ee1f 82bd b8d9 8dbe 0386 cfbe 2946 45be
00000310: ff5f 8cbc bd4a b9bd 3045 0abe b43f 95be
00000320: 273d 4d3e 40a9 573e 58f7 113d e048 f8bd
00000330: fbf1 04bc 147c 463e 774d c13e ed45 953d
00000340: ff2f c3be aace a2be 9428 013e aaae c13e
00000350: 1fba 743e 7ef5 9fbe 786e cfbe d2f3 27bc
00000360: 0fc1 573e 69b0 313e ac88 30bc d4da 5ebe
00000370: ccd7 f83d 42d5 e83d e29d 8c3e 410e 683d
00000380: 71ed 113d 0d2a 89bd efa9 453d d175 59be
00000390: 522a 86be 86ba d2bd 537d 7fbe 6332 f2be
000003a0: eb91 35bf 31a4 d1be cf6a 483e b0aa a0bd
000003b0: 8479 e0be 3b71 11be b96e ec3d 59d3 74bc
000003c0: cd9f 2dbc 6ed4 d23e 7642 2c3f b59a f03e
000003d0: 7ef1 213d a83a 4a3e a5db eb3e 2ff1 9a3e
000003e0: dc83 af3e e29e bc3d 390a a83e 7aaf ba3e
000003f0: c477 e73d 3bfd 203c 2096 b8bd 7dc7 df3d

conv1.bias f4 [6]
0.08583801 -0.5924253 -0.2144677 -0.3510824 0.43501732 -0.24326296
00000000: d7cb af3d 2fa9 17bf 6c9d 5bbe 13c1 b3be
00000010: 97ba de3e ed19 79be

conv2.weight f4 [16, 6, 5, 5]
-0.033471808 -0.026508596 -0.1166093 0.06395836 0.029647691 0.056588955 -0.057503328 -0.07996714
-0.17202795 -0.012735112 -0.017072976 -0.04655393 -0.04305808 -0.07816782 0.035173807 -0.010843132
-0.012517203 0.04231954 -0.004276402 -0.0380947 0.084767915 -0.012336598 0.009458921 -0.12669991
-0.18295234 0.04518175 -0.057583634 -0.12202484 -0.07177334 0.10707284 -0.20273271 -0.1248154
-0.0744546 -0.12012709 -0.0016609974 -0.10226472 0.08689631 0.006371772 -0.14192688 0.12000988
-0.13991222 -0.12145389 -0.22363321 -0.17102806 -0.10251654 -0.2044911 -0.18501732 -0.1362087
-0.15531124 -0.2550687 0.039465543 -0.033648092 -0.002315141 0.15369211 -0.14862603 -0.17532557
-0.047244582 0.17825556 0.032659646 -0.109193414 -0.08079206 0.081180215 0.09560683 -0.1828951
-0.1397605 0.017962972 0.17104866 -0.02043236 -0.1911115 0.0039745485 -0.035653595 0.24964716
-0.17931421 -0.13592511 0.053121507 -0.08776478 0.20298222 0.16363543 -0.13056605 0.027261019
0.2090028 0.10006531 -0.2726238 -0.21145982 0.2719425 0.05354877 -0.17349544 -0.24971545
0.09906164 0.36766374 -0.027641121 -0.1590199 0.1348714 0.33553234 0.06977856 -0.07583682
-0.06729236 0.16323994 0.18772784 0.021258887 0.09335763 -0.011874378 0.13498335 -0.010213172
0.020851472 0.054264717 0.09815521 0.1601878 -0.06991881 -0.18019713 0.14931439 0.16194908
-0.017170662 -0.08989452 -0.009018896 0.13475937 0.122185506 -0.056057084 -0.033008482 -0.041132886
0.16142452 0.06387715 -0.005893401 0.077326484 0.1563848 0.043495223 0.0715572 -0.356952
-0.2539949 0.19815779 -0.14341931 -0.33882123 -0.31964388 0.16750169 0.19261973 -0.31073564
-0.38935345 -0.07714312 0.43103275 0.060440347 -0.2905065 -0.13462469 0.25681275 0.24887569
-0.12434736 -0.23221382 -0.027032057 0.18408617 0.14900517 0.04548427 -0.08461454 0.0075994963
-0.06844036 -0.006002106 -0.0802482 -0.047513478 -0.1329175 -0.06571215 -0.06801423 -0.004420767
-0.10464543 -0.0792931 -0.035385665 -0.046320006 -0.06185444 0.03272895 -0.02204813 -0.08976408
-0.088429645 -0.04090198 -0.03701509 -0.10165797 -0.02233843 0.051983535 0.030198496 -0.074014746
0.03354627 0.09278552 -0.09216842 -0.10300956 -0.04194366 -0.056856766 -0.13594785 0.013146054
0.056874484 0.14946723 -0.10352509 -0.08437255 -0.091408595 0.03096768 -0.015018908 -0.112876475
-0.023000902 -0.04467603 0.012753048 0.069226444 0.02197835 -0.085828565 -0.059546303 -0.0311243
0.16296445 0.025073832 0.055516113 0.022711582 0.027490046 0.14164445 0.15521443 0.07981332
0.028349252 -0.021850875 -0.03857292 -0.048970934 0.0983323 -0.04023126 0.033561062 -0.108845524
-0.03391892 -0.003299119 -0.022653118 -0.013390554 -0.08117041 -0.08313855 0.050618853 0.06834339
-0.0014532456 0.080059186 0.11635478 -0.03664562 0.029671678 0.025692452 -0.08871743 -0.023753464
-0.022160351 0.10195022 0.0727545 -0.040199224 0.0514126 -0.0023192274 -0.02977176 -0.07848528
0.20373859 0.061357833 -0.104850486 -0.082815416 -0.04319151 0.134642 -0.024052665 0.028911958
-0.061980993 -0.03716108 -0.018053928 -0.024135046 0.11374689 0.015522951 0.02913346 0.09717397
00000000: bc19 09bd 8e28 d9bc dbd0 eebd 9afc 823d
00000010: b7df f23c d2c9 673d 9c88 6bbd d0c5 a3bd
00000020: 1828 30be eea6 50bc a0dc 8bbc 55af 3ebd
00000030: ab5d 30bd 7316 a0bd 6912 103d 64a7 31bc
00000040: f414 4dbc 4157 2d3d 0f21 8cbb 3009 1cbd
00000050: cd9a ad3d 711f 4abc 97f9 1a3c 9fbd 01be
00000060: dc57 3bbe 8010 393d d1dc 6bbd 29e8 f9bd
00000070: e7fd 92bd 0149 db3d 2a99 4fbe 379f ffbd
00000080: a77b 98bd 3105 f6bd d3b5 d9ba 2a70 d1bd
00000090: b1f6 b13d 4cca d03b 4855 11be bdc7 f53d
000000a0: 2645 0fbe d1bc f8bd 1b00 65be fb21 2fbe
000000b0: 31f4 d1bd 1d66 51be 2e75 3dbe 4b7a 0bbe
000000c0: e909 1fbe 5d98 82be 9fa6 213d 95d2 09bd
000000d0: 9fb9 17bb 7761 1d3e 6c31 18be 8c88 33be
000000e0: 8983 41bd a088 363e 1fc6 053d cca0 dfbd
000000f0: 4f76 a5bd d041 a63d 84cd c33d da48 3bbe
00000100: 601d 0fbe 1527 933c 6127 2f3e c461 a7bc
00000110: bcb2 43be ee3c 823b 8109 12bd 81a3 7f3e
00000120: 259e 37be f42f 0bbe f095 593d 05be b3bd
00000130: 92da 4f3e 0c90 273e 1bb3 05be 8052 df3c
00000140: d404 563e 0bef cc3d 5995 8bbe ec88 58be
00000150: 0c3c 8b3e f455 5b3d caa8 31be 68b5 7fbe
00000160: d4e0 ca3d 6c3e bc3e a26f e2bc 1dd6 22be
00000170: ba1b 0a3e e5ca ab3e 10e8 8e3d 5650 9bbd
00000180: 94d0 89bd 5f28 273e ba3b 403e 1e27 ae3c
00000190: 4932 bf3d c08c 42bc 1339 0a3e 2655 27bc
000001a0: b5d0 aa3c ae44 5e3d 9905 c93d 4508 243e
000001b0: 9831 8fbd 9985 38be dfe5 183e fbd5 253e
000001c0: 7da9 8cbc 9e1a b8bd fec3 13bc 5cfe 093e
000001d0: 653c fa3d 1d9c 65bd e733 07bd f57a 28bd
000001e0: 784c 253e 06d2 823d 6e1d c1bb 595d 9e3d
000001f0: 5623 203e 0c28 323d 958c 923d 6ac2 b6be
00000200: 9f0b 82be e0e9 4a3e 83dc 12be fa79 adbe
00000210: 5da8 a3be 9085 2b3e 1b3e 453e be18 9fbe
00000220: 5659 c7be 36fd 9dbd 53b0 dc3e 4c90 773d
00000230: 45bd 94be 0edb 09be f67c 833e 45d9 7e3e
00000240: d4a9 febd 76c9 6dbe 5572 ddbc 1681 3c3e
00000250: d094 183e b74d 3a3d 634a adbd 3205 f93b
00000260: 762a 8cbd 50ad c4bb 2b59 a4bd 7e9d 42bd
00000270: 861b 08be 1794 86bd 0b4b 8bbd 15dc 90bb
00000280: 5850 d6bd 6c64 a2bd 8ff0 10bd 0cba 3dbd
00000290: 155b 7dbd cb0e 063d 489e b4bc 3bd6 b7bd
000002a0: 9a1a b5bd d688 27bd 239d 17bd 0e32 d0bd
000002b0: 15ff b6bc b0ec 543d d662 f73c 0b95 97bd
000002c0: d067 093d 5606 be3d ccc2 bcbd adf6 d2bd
000002d0: 1dcd 2bbd a4e2 68bd ea35 0bbe 8c62 573c
000002e0: 38f5 683d f00d 193e f604 d4bd 84cb acbd
000002f0: 6e34 bbbd efaf fd3c de11 76bc c82b e7bd
00000300: 636c bcbc 36fe 36bd 29f2 503c 98c6 8d3d
00000310: f10b b43c e3c6 afbd d3e6 73bd 63f8 febc
00000320: 27e0 263e a367 cd3c dd64 633d a40d ba3c
00000330: ce32 e13c 3e0b 113e 88f0 1e3e 2a75 a33d
00000340: b13c e83c 9b00 b3bc a3fe 1dbd bf95 48bd
00000350: 7262 c93d 89c9 24bd 5377 093d 67ea debd
00000360: 91ee 0abd 0836 58bb 0893 b9bc 0e64 5bbc
00000370: ac3c a6bd 8b44 aabd b755 4f3d 9ff7 8b3d
00000380: d57a beba 12f6 a33d 6a4b ee3d b819 16bd
00000390: 0512 f33c fa78 d23c 7cb1 b5bd a096 c2bc
000003a0: a089 b5bc 47cb d03d 5000 953d f1a7 24bd
000003b0: 0596 523d 2efe 17bb e8e3 f3bc e4bc a0bd
000003c0: d9a0 503e 5a52 7b3d dabb d6bd 219b a9bd
000003d0: 95e9 30bd 98df 093e 180a c5bc c5d8 ec3c
000003e0: c8df 7dbd 3736 18bd d5e5 93bc dcb6 c5bc
000003f0: 21f4 e83d fa53 7e3c 4ba9 ee3c 2503 c73d

conv2.bias f4 [16]
-0.53611296 -0.046931617 1.000359 -0.2097068 1.1763004 -0.10502938 -0.22984345 -0.7555472
-0.7379961 0.7081157 -1.1508312 0.017341254 1.1284512 0.5246843 -0.19823617 0.9798128
00000000: b33e 09bf 5e3b 40bd c40b 803f 61bd 56be
00000010: 0391 963f a519 d7bd 155c 6bbe 8b6b 41bf
00000020: 50ed 3cbf 1247 353f 704e 93bf 3f0f 8e3c
00000030: 1771 903f b651 063f 6cfe 4abe 03d5 7a3f

fc1.weight f4 [120, 400]
-0.0017476978 -0.025849752 -0.005845471 0.042757276 0.010133465 -0.067700796 0.009117215 0.03722213
-0.0016454823 0.0320921 -0.061940867 4.3937154e-05 -0.05782925 0.05436693 -0.045804463 0.031295374
-0.0022735607 0.023034401 -0.003968162 0.042589147 -0.05852368 -0.016775854 0.0021276262 0.08917647
0.003794231 -0.029084967 -0.04591894 -0.015132078 -0.018966904 -0.009740478 0.004813137 0.017748786
-0.030955303 -0.023729758 0.023189388 -0.030520203 -0.00019578138 0.04897812 -0.028048936 0.017084502
-0.029967064 0.035151448 0.013364191 0.045784738 -0.016668214 0.04098629 -0.039450668 0.0039784675
0.010927695 0.048333723 0.019027794 -0.010084556 0.026816236 -0.052290153 0.004565112 0.029206859
0.018875448 0.04867436 0.015795294 0.0016435231 -0.04234558 0.054624964 0.012950001 -0.0064120144
-0.04179332 0.067642756 0.027187143 -0.010405819 -0.014154487 0.0072965124 0.060041618 0.026503827
0.0058024633 0.0277917 -0.036380634 -0.041105527 -0.07040362 -0.014299337 -0.02481374 -0.04548059
-0.012553562 -0.0042158156 -0.055909816 -0.042875934 -0.031206321 0.009333746 -0.027199185 -0.0019160147
-0.059363782 -0.039178587 0.0072058425 0.05053325 -0.012146208 -0.057289276 0.016492255 0.07320073
0.068035506 0.025919806 -0.007351317 -0.020318769 0.057398546 -0.013624619 -0.041709334 -0.001393928
0.015337722 0.07581671 -0.006958521 -0.050117366 -0.021174904 -0.023756526 -0.035379175 -0.009808666
0.013856522 0.011932326 -0.029398533 0.0008859289 -0.028142339 -0.028543012 -0.012796867 0.056189112
0.005428186 0.028244004 -0.012117736 -0.021793924 0.09754426 -0.0039795763 0.058381945 0.016860321
-0.0401183 0.017983785 -0.0042841868 0.052877814 -0.0009931875 -0.008371206 0.025291737 -0.08043933
0.012058937 0.056796107 0.027677264 -0.044853672 -0.044544667 -0.008617743 0.032424305 0.029648017
-0.03789687 0.0142049845 0.03844554 -0.02050615 0.013771916 0.043312278 -0.048037868 0.0057555246
-0.053079113 -0.028128779 0.023602376 0.023957854 -0.023479292 -0.03729691 0.012040165 -0.021150254
-0.030343764 -0.039154597 0.015526189 0.022639655 -0.056136668 0.02636934 0.08084841 -0.04419466
-0.003311365 0.013322377 -0.014729758 -0.018376822 0.040223148 0.022971787 0.012867588 0.03524905
0.004525127 0.064991266 0.053208232 0.004700528 0.03197685 -0.019561213 -0.040591672 -0.027129553
0.00872573 0.044037472 -0.0012405829 0.06720314 -0.044793162 -0.046303682 0.11038509 0.077734895
0.012484826 0.0067192614 -0.045697197 -0.013053606 -0.0063180225 0.017276427 -0.00869896 0.02024059
-0.042539813 -0.05559674 -0.042466134 -0.032651458 0.03648131 -0.0024152598 -0.032154594 0.016668618
0.01993816 0.049726292 0.033327255 -0.033799887 -0.007967824 0.012142289 -0.0067471783 -0.038728036
-0.0373745 -0.019768069 0.034296334 0.07141447 0.037826974 0.017659454 -0.044123624 -0.012175625
0.03299028 0.0042351363 -0.039186426 0.030192005 0.03361192 -0.04653378 0.011085186 0.0315832
-0.03760002 -0.020102667 0.024720185 -0.047163244 0.00046667113 0.004000897 -0.058493014 0.0072888937
-0.0058427574 0.018435523 -0.024692096 -0.041620713 -0.0021037944 -0.0057658856 -0.04617716 -0.029183697
-0.040593952 -0.025082236 -0.039598294 0.027516225 -0.023610912 -0.008581856 0.059747037 0.036960077
00000000: 0213 e5ba dcc2 d3bc 5d8b bfbb 4122 2f3d
00000010: d506 263c b7a6 8abd 5f60 153c 3b76 183d
00000020: 39ad d7ba 0173 033d b5b5 7dbd 2949 3838
00000030: 5dde 6cbd dcaf 5e3d 769d 3bbd 942f 003d
00000040: 0500 15bb a4b2 bc3c 5b07 82bb f571 2e3d
00000050: 87b6 6fbd 846d 89bc a56f 0b3b 27a2 b63d
00000060: a2a8 783b 9943 eebc 8015 3cbd 89ec 77bc
00000070: 7b60 9bbc 8796 1fbc 85b7 9d3b e765 913c
00000080: fa95 fdbc e964 c2bc acf7 bd3c 8105 fabc
00000090: aa4a 4db9 489d 483d e2c6 e5bc ccf4 8b3c
000000a0: 7d7d f5bc f7fa 0f3d 7bf5 5a3c c788 3b3d
000000b0: c78b 88bc 3de1 273d 0697 21bd ce5d 823b
000000c0: 130a 333c 95f9 453d 2de0 9b3c b239 25bc
000000d0: b9ad db3c 332e 56bd ef96 953b 3943 ef3c
000000e0: afa0 9a3c c45e 473d 2265 813c 7c6b d73a
000000f0: 8f72 2dbd 6dbe 5f3d 3e2c 543c e01b d2bb
00000100: 792f 2bbd 4988 8a3d 92b7 de3c 2b7d 2abc
00000110: 39e8 67bc 9517 ef3b 33ee 753d 8e1e d93c
00000120: 9722 be3b 6bab e33c dc03 15bd 455e 28bd
00000130: c62f 90bd c447 6abc 2f46 cbbc db49 3abd
00000140: 75ad 4dbc d324 8abb b101 65bd ad9e 2fbd
00000150: 66a4 ffbc 91ec 183c d3d0 debc c922 fbba
00000160: 7027 73bd ba79 20bd fd1e ec3b f4fb 4e3d
00000170: e400 47bc 29a8 6abd c41a 873c 44ea 953d
00000180: 3356 8b3d c655 d43c 51e3 f0bb 8c73 a6bc
00000190: bd1a 6b3d cb39 5fbc 68d7 2abd 76b4 b6ba
000001a0: 124b 7b3c cb45 9b3d 4e04 e4bb de47 4dbd
000001b0: fe76 adbc 0c9d c2bc c1e9 10bd 87b4 20bc
000001c0: 7706 633c cd7f 433c 31d5 f0bc af3d 683a
000001d0: c38a e6bc 09d3 e9bc f3a9 51bc 8e26 663d
000001e0: edde b13b f85f e73c 7889 46bc 2c89 b2bc
000001f0: 49c5 c73d 1b67 82bb e821 6f3d a81e 8a3c
00000200: 1653 24bd bb52 933c 5d62 8cbb 6896 583d
00000210: d82d 82ba 6227 09bc 9e30 cf3c 60bd a4bd
00000220: d992 453c 09a3 683d 6ebb e23c 7cb8 37bd
00000230: 7874 36bd 6f31 0dbc 59cf 043d 66e0 f23c
00000240: c039 1bbd 06bc 683c 1279 1d3d 83fc a7bc
00000250: 9aa3 613c 3768 313d 5bc3 44bd d798 bc3b
00000260: 7c69 59bd 536e e6bc c559 c13c 4343 c43c
00000270: a557 c0bc a5c4 18bd 1d44 453c 4c43 adbc
00000280: 7c93 f8bc 9260 20bd 8e61 7e3c cc76 b93c
00000290: 90ef 65bd 8404 d83c da93 a53d 7605 35bd
000002a0: 7c03 59bb 1946 5a3c 1555 71bc fd8a 96bc
000002b0: 07c1 243d 542f bc3c 93d2 523c 4f61 103d
000002c0: 8447 943b 241a 853d e0f0 593d e306 9a3b
000002d0: 28fa 023d d63e a0bc 7443 26bd cc3e debc
000002e0: 5df6 0e3c a360 343d 0e9b a2ba cda1 893d
000002f0: 0979 37bd eea8 3dbd 9411 e23d 7933 9f3d
00000300: 288d 4c3c 402d dc3b fc2c 3bbd cbde 55bc
00000310: 6a07 cfbb 4b87 8d3c 1586 0ebc 98cf a53c
00000320: 3a3e 2ebd 68b9 63bd f8f0 2dbd 89bd 05bd
00000330: 6d6d 153d 5649 1ebb 89b4 03bd a08c 883c
00000340: 5a55 a33c ccad 4b3d 2982 083d c071 0abd
00000350: 7a8b 02bc 74f0 463c 6f17 ddbb 4aa1 1ebd
00000360: 0116 19bd a5f0 a1bc 507a 0c3d c041 923d
00000370: 75f0 1a3d 8faa 903c f9ba 34bd 467c 47bc
00000380: d120 073d e6c6 8a3b f281 20bd 3955 f73c
00000390: a7ac 093d 349a 3ebd a49e 353c 635d 013d
000003a0: 7b02 1abd 59ae a4bc fc81 ca3c 3f2e 41bd
000003b0: 8aab f439 f519 833b 5f96 6fbd acd7 ee3b
000003c0: 9a74 bfbb 1806 973c 1447 cabc 7b7a 2abd
000003d0: d0df 09bb c1ef bcbb 4324 3dbd a612 efbc
000003e0: d845 26bd 4379 cdbc d231 22bd b569 e13c
000003f0: ac6b c1bc ea9a 0cbc 4fb9 743d 7363 173d

fc1.bias f4 [120]
0.010182495 -0.012724762 -0.15265459 0.10926049 -0.03106085 -0.019889716 0.17648816 0.05107806
0.15277192 0.08434315 0.01086768 0.09838937 0.11552864 0.116128094 -0.011488477 0.078732274
0.08560775 0.037043072 -0.21783164 0.057926632 0.011880107 0.052103378 -0.021724977 -0.04747928
0.10050268 -0.006114171 0.039297834 -0.0015619994 -0.003955692 0.11402966 0.20090437 0.091325246
-0.12649666 -0.067415 -0.044436987 0.14429061 -0.15683563 -0.089677766 0.22723262 -0.03411185
0.07727237 -0.12154378 -0.12081553 -0.009866944 -0.06069696 0.15966071 0.016214421 0.13054892
0.19531123 -0.17412531 0.08163125 0.121658936 -0.023118148 0.018113595 0.11714887 -0.030097831
0.060451638 -0.09017254 0.10444035 -0.0006277172 -0.21995357 -0.048363127 0.10254094 -0.018955642
0.118653625 0.11255278 0.0036750748 -0.020915894 0.17324859 0.115031235 0.009997876 -0.124726996
-0.0664707 0.325637 0.05524784 -0.25120738 0.105166845 0.029273579 0.17376225 0.123461634
0.026896274 -0.18234994 0.16424961 0.12305129 -0.032228585 -0.020973075 -0.044270683 0.26859733
-0.053601176 -0.021233961 0.195399 0.058626752 -0.0685552 -0.10514151 0.0652162 -0.012180187
0.063572355 0.045852713 0.1770036 0.1129221 0.15656255 -0.032866344 0.3024598 -0.023388809
-0.015581281 -0.07730847 -0.052605793 0.054241244 -0.02215421 0.03247808 -0.19462952 -0.0024595773
-0.056466524 0.0153091485 0.022831285 0.01661008 -0.0035537493 -0.05285595 -0.1425229 0.09463176
00000000: 7bd4 263c 857b 50bc 7c51 1cbe f7c3 df3d
00000010: 5373 febc c2ef a2bc 50b9 343e 3a37 513d
00000020: 3e70 1c3e 1abc ac3d 5b0e 323c 5e80 c93d
00000030: 489a ec3d 91d4 ed3d 2a3a 3cbc 633e a13d
00000040: 1e53 af3d 7aba 173d 420f 5fbe 7a44 6d3d
00000050: c8a4 423c 5a6a 553d 94f8 b1bc a279 42bd
00000060: 59d4 cd3d 6259 c8bb c4f6 203d 01bc ccba
00000070: c09e 81bb 6288 e93d e0b9 4d3e bb08 bb3d
00000080: 5788 01be e010 8abd 8f03 36bd ebc0 133e
00000090: 8599 20be faa8 b7bd abaf 683e deb8 0bbd
000000a0: fa40 9e3d f2eb f8bd 226e f7bd f6a8 21bc
000000b0: 609d 78bd 197e 233e 1bd4 843c 9eae 053e
000000c0: abff 473e e84d 32be 492e a73d 5228 f93d
000000d0: 4562 bdbc f662 943c bfeb ef3d ba8f f6bc
000000e0: 239c 773d 61ac b8bd d2e4 d53d 638d 24ba
000000f0: 823b 61be 6a18 46bd fc00 d23d dd48 9bbc
00000100: ac00 f33d 1282 e63d 86d9 703b cf57 abbc
00000110: 1468 313e 7f95 eb3d 22ce 233c de70 ffbd
00000120: ca21 88bd e5b9 a63e 8f4b 623d 419e 80be
00000130: b761 d73d 25cf ef3c bbee 313e 74d9 fc3d
00000140: 9355 dc3c f1b9 3abe 0d31 283e 5102 fc3d
00000150: 1f02 04bd bacf abbc 2d55 35bd 9785 893e
00000160: e88c 5bbd d8f2 adbc ad16 483e 9b22 703d
00000170: ab66 8cbd 6f54 d7bd 1290 853d 688f 47bc
00000180: 3932 823d 0ed0 3b3d 6f40 353e b443 e73d
00000190: ef51 203e dc9e 06bd 03dc 9a3e e399 bfbc
000001a0: a148 7fbc e753 9ebd 2c79 57bd 112c 5e3d
000001b0: bf7c b5bc bc07 053d f64c 47be dc30 21bb
000001c0: 7149 67bd 39d3 7a3c ad08 bb3c dd11 883c
000001d0: 05e6 68bb 7b7f 58bd 86f1 11be 4cce c13d

fc2.weight f4 [84, 120]
0.08559766 -0.008583814 0.037107076 -0.02454128 0.0038011707 -0.018757124 -0.035800263 -0.011589828
-0.14625828 -0.034229644 -0.042239387 0.018047124 -0.07342172 0.015789539 0.04688184 0.015351414
0.027485058 -0.0380719 0.038574573 0.025391104 -0.07378574 0.06959006 0.022704381 -0.091543764
-0.100633636 -0.026187275 -0.08028195 -0.11035996 -0.06500987 -0.0102144 0.060711913 0.011739351
-0.017458364 -0.02913486 -0.053229142 0.01270205 0.08193471 0.05568834 -0.056318723 0.08107551
0.054449826 -0.10087208 0.031465795 -0.013332328 0.08126129 0.08635327 0.09759391 -0.015695207
0.08802817 -0.008644145 -0.013267883 -0.106404275 0.06973932 -0.06420176 -0.15295954 -0.07981809
0.022979246 0.12561026 0.017839756 0.025612738 0.012347232 0.022021944 -0.07028838 0.09453501
0.115054525 0.013767735 -0.0070496625 -0.014552723 -0.054209217 -0.036765557 0.07276623 -0.08165121
0.014819188 0.109181955 0.008232665 0.03376037 0.0477 -0.09056769 -0.01906336 0.11306968
-0.025538208 -0.0049764393 -0.039776046 0.0031601563 -0.020428602 -0.10973609 -0.01473329 -0.09719219
0.08924681 0.04759636 -0.09733958 -0.038651697 -0.08575725 -0.024167523 -0.1628418 0.039934695
-0.12605959 -0.12661973 -0.0006048201 0.005101025 -0.140273 -0.045829162 -0.0070936102 -0.012583323
0.012359055 -0.19094624 0.02344397 0.019733908 -0.07771291 0.016591169 0.028255861 0.06516459
0.110064454 -0.03421037 0.04691218 -0.013811358 0.0007284169 0.0008003211 -0.2041275 -0.050973214
-0.095762774 0.0827849 -0.076084554 0.029712772 -0.0032632456 -0.056615815 -0.006506075 -0.05068545
0.079090975 0.1708907 -0.09211191 -0.041091833 -0.04137016 -0.057805087 -0.08180209 -0.013836902
-0.024943091 0.08083273 0.09827731 0.046547897 -0.121051356 -0.019331224 -0.085254416 0.072038256
-0.04075713 -0.033027902 0.043652926 -0.08446238 0.09275387 0.013946179 0.027110973 0.149461
0.16954233 -0.07615362 -0.078522086 0.09444138 0.09635744 -0.0131758815 -0.091694 0.10205496
-0.09831331 0.021815928 0.08777651 0.0032980752 -0.0988979 0.033285774 0.07345934 -0.013879226
-0.063536376 0.054777555 0.02835191 0.00959218 -0.053957075 0.060035862 -0.09159296 0.025644597
-0.02082263 -0.012989172 -0.041887525 0.04434569 0.053701334 0.14519416 -0.12767626 -0.029720329
0.14352506 -0.093804434 0.050847575 0.035068028 -0.03324112 -0.011948777 0.054910537 0.08774952
0.14479665 0.16227843 0.036089092 -0.017905371 0.027013432 -0.041902497 -0.03392727 -0.023403607
-0.10363135 -0.18327464 -0.05819 0.00061656465 0.017969817 -0.06116609 0.08711513 0.016137077
-0.0014351371 0.00040495035 -0.059377067 0.06970088 -0.09335379 -0.12843329 -0.11985073 0.15702784
-0.10609483 0.09491836 0.018349305 -0.044282947 -0.04299645 -0.18935719 -0.028813872 0.07282668
-0.101396896 -0.064226165 -0.012532828 -0.077198185 -0.003619375 -0.050755747 -0.049971517 0.099566974
-0.0099017145 -0.11586369 0.0030965337 -0.0996058 0.19704507 -0.14020291 0.045079198 -0.12499693
-0.019961266 -0.018045302 -0.13104683 0.103724554 -0.051897176 -0.00097552786 0.18845172 -0.038459353
0.030966012 0.011289216 -0.021252375 0.026241796 -0.044238884 0.028360099 -0.043870218 -0.0899735
00000000: d34d af3d 20a3 0cbc 97fd 173d cb0a c9bc
00000010: 101d 793b 8aa8 99bc 4ca3 12bd 43e3 3dbc
00000020: bbc4 15be 6234 0cbd 3503 2dbd 90d7 933c
00000030: 205e 96bd 1059 813c 2c07 403d 7f84 7b3c
00000040: 5828 e13c 48f1 1bbd 5f00 1e3d 0101 d03c
00000050: fa1c 97bd 3c85 8e3d 8afe b93c 4c7b bbbd
00000060: 0219 cebd b286 d6bc dd6a a4bd 6704 e2bd
00000070: e523 85bd 4c5a 27bc 0ead 783d 6856 403c
00000080: d804 8fbc 3bac eebc cd06 5abd 421c 503c
00000090: 63cd a73d 7519 643d 76ae 66bd eb0a a63d
000000a0: c806 5f3d 0596 cebd 47e2 003d d66f 5abc
000000b0: 526c a63d fcd9 b03d 51df c73d 3c93 80bc
000000c0: 1d48 b43d 2ca0 0dbc 8961 59bc 7cea d9bd
000000d0: 7dd3 8e3d 367c 83bd 6da1 1cbe ab77 a3bd
000000e0: f93e bc3c fa9f 003e ae24 923c ced1 d13c
000000f0: 0b4c 4a3c 5d67 b43c 5bf3 8fbd 929b c13d
00000100: b5a1 eb3d 1192 613c db00 e7bb 8b6e 6ebc
00000110: 7c0a 5ebd 7b97 16bd 7606 953d c038 a7bd
00000120: 2ecc 723c ca9a df3d 4de2 063c 5048 0a3d
00000130: 1361 433d 8e7b b9bd c32a 9cbc 1491 e73d
00000140: 8135 d1bc 6611 a3bb 35ec 22bd a01a 4f3b
00000150: e259 a7bc 51bd e0bd e663 71bc b30c c7bd
00000160: 08c7 b63d 67f4 423d f959 c7bd 3e51 1ebd
00000170: 7fa1 afbd f8fa c5bc 00c0 26be 9092 233d
00000180: c415 01be 9aa8 01be ca8c 1eba 8026 a73b
00000190: baa3 0fbe 5cb7 3bbd 8471 e8bb 482a 4ebc
000001a0: a27d 4a3c 6987 43be 920d c03c 01a9 a13c
000001b0: f227 9fbd 34ea 873c d678 e73c 0375 853d
000001c0: 7969 e13d 2c20 0cbd fc26 403d 0949 62bc
000001d0: 3bf3 3e3a a4cc 513a cd06 51be 4ac9 50bd
000001e0: 461f c4bd 218b a93d 38d2 9bbd 3368 f33c
000001f0: 2ddc 55bb fce5 67bd ea30 d5bb 8c9b 4fbd
00000200: 73fa a13d f9fd 2e3e 2ba5 bcbd e94f 28bd
00000210: c273 29bd 07c5 6cbd db87 a7bd 2cb4 62bc
00000220: 7455 ccbc a18b a53d 9d45 c93d 02a9 3e3d
00000230: c6e9 f7bd 845c 9ebc de99 aebd cb88 933d
00000240: f3f0 26bd 4448 07bd 69cd 323d 9dfa acbd
00000250: bef5 bd3d 847e 643c d517 de3c 4e0c 193e
00000260: 819c 2d3e 6ef6 9bbd 30d0 a0bd 7b6a c13d
00000270: 0d57 c53d a7df 57bc 10ca bbbd 3102 d13d
00000280: 7d58 c9bd 51b7 b23c 2cc4 b33d 8524 583b
00000290: fb8a cabd aa56 083d da71 963d b165 63bc
000002a0: 5c1f 82bd 6e5e 603d 4442 e83c 8528 1d3c
000002b0: 1802 5dbd 2ae8 753d 1795 bbbd 9e14 d23c
000002c0: 3894 aabc 89d0 54bc 4192 2bbd d4a3 353d
000002d0: eef5 5b3d c7ad 143e 91bd 02be 0c78 f3bc
000002e0: 3cf8 123e 8a1c c0bd 8c45 503d 7ea3 0f3d
000002f0: d727 08bd cec4 43bc dfe9 603d 05b6 b33d
00000300: 9345 143e 512c 263e 28d2 133d 49ae 92bc
00000310: 464b dd3c f4a1 2bbd 52f7 0abd ecb8 bfbc
00000320: ac3c d4bd 59ac 3bbe a358 6ebd f4a0 213a
00000330: 7035 933c 4b89 7abd 6b69 b23d e731 843c
00000340: 361b bcba 844f d439 5e35 73bd 56bf 8e3d
00000350: 4630 bfbd 0484 03be 4d74 f5bd e8cb 203e
00000360: 3f48 d9bd 8f64 c23d 4851 963c 0962 35bd
00000370: 0c1d 30bd dae6 41be 120b ecbc 2826 953d
00000380: 2da9 cfbd 0289 83bd 7e56 4dbc 151a 9ebd
00000390: 0933 6dbb 42e5 4fbd efae 4cbd c5e9 cb3d
000003a0: cd3a 22bc f149 edbd 37ef 4a3b 20fe cbbd
000003b0: 2fc6 493e 5a91 0fbe f7a4 383d 64fe ffbd
000003c0: cf85 a3bc bed3 93bc 2431 06be 8a6d d43d
000003d0: 2292 54bd 91ba 7fba 7df9 403e 8e87 1dbd
000003e0: 6fac fd3c 67f6 383c 7619 aebc 09f9 d63c
000003f0: d533 35bd 7053 e83c 42b1 33bd 0744 b8bd

fc2.bias f4 [84]
-0.058302157 0.13455239 0.06639523 -0.070165806 -0.08743899 0.12479772 0.23191154 0.45145398
0.4700138 -0.03934743 0.15562943 0.2276685 0.040215116 0.37608826 -0.05018609 -0.15340675
0.17719367 -0.15932642 0.38185033 0.12652072 0.2546232 -0.08887925 0.0131471045 0.3114824
0.01757377 -0.059739593 0.036391895 -0.097066514 0.35002136 0.24750783 0.073593765 0.26876166
0.11312069 0.034827325 -0.06338014 0.33768857 -0.010578172 0.042060833 -0.00031053985 0.2367923
-0.11182916 -0.20328332 0.061037324 0.13335028 0.43297008 0.47658628 0.08358114 0.13989832
0.12739797 0.27788576 -0.06934504 0.22624062 0.39665714 0.38322496 -0.06720136 0.20556945
-0.04118852 0.11632245 -0.029759482 0.18775488 -0.016624156 -0.06929504 0.11265534 -0.05227516
0.045842834 -0.1475852 0.686378 -0.02463648 -0.024192788 0.37605232 -0.04472137 0.44758022
0.014195188 0.17741409 0.09112435 -0.062449273 0.45696804 0.07030492 0.26264238 0.10899134
0.40214688 -0.055104095 0.21263425 0.3820298
00000000: 3ece 6ebd 1ac8 093e 39fa 873d 17b3 8fbd
00000010: 3713 b3bd f295 ff3d 387a 6d3e fa24 e73e
00000020: a6a5 f03e c52a 21bd 525d 1f3e ee21 693e
00000030: 9bb8 243d a48e c03e ee8f 4dbd a916 1dbe
00000040: 4272 353e 7726 23be e381 c33e a68e 013e
00000050: f95d 823e 5306 b6bd f466 573c 9f7a 9f3e
00000060: def6 8f3c 81b1 74bd ab0f 153d cfca c6bd
00000070: 0036 b33e b172 7d3e 54b8 963d 219b 893e
00000080: d2ab e73d 19a7 0e3d 72cd 81bd 84e5 ac3e
00000090: 1250 2dbc fb47 2c3d f4cf a2b9 ae79 723e
000000a0: b006 e5bd 8129 50be 4602 7a3d fa8c 083e
000000b0: 41ae dd3e 1e03 f43e 972c ab3d 8141 0f3e
000000c0: 9d74 023e 0b47 8e3e c604 8ebd 9fab 673e
000000d0: a516 cb3e 1036 c43e dea0 89bd cc80 523e
000000e0: 4bb5 28bd 773a ee3d 28ca f3bc d142 403e
000000f0: 622f 88bc 8fea 8dbd d8b7 e63d 7a1e 56bd
00000100: b2c5 3b3d 9320 17be 78b6 2f3f 71d2 c9bc
00000110: f42f c6bc ee89 c03e c12d 37bd 3c29 e53e
00000120: ef92 683c 0aac 353e 679f ba3d cfca 7fbd
00000130: b7f7 e93e 07fc 8f3d 1079 863e da36 df3d
00000140: 32e6 cd3e d5b4 61bd cbbc 593e 6999 c33e

fc3.weight f4 [10, 84]
-0.03569747 -0.11642345 0.12678258 -0.048021328 -0.16666336 0.0022579315 0.13406783 0.14970157
-0.28473404 0.027907155 -0.08529036 0.29075134 0.08225234 0.14866467 -0.057774086 0.2080762
-0.08197044 0.21794039 0.2628445 -0.081005104 0.2100552 -0.03793545 0.24946722 0.13322963
0.0060195513 -0.07336556 0.021835437 -0.033689037 0.0107660545 0.00080458855 -0.14566396 -0.098752275
-0.021427918 0.13471365 -0.003217989 0.05468036 -0.06601104 0.0008186803 -0.01730208 0.23530677
-0.09083516 0.124114946 0.13720573 -0.12423873 -0.23440266 -0.21269323 -0.1304913 -0.18701881
-0.017823206 0.00067655824 0.14722028 -0.016589854 0.14132723 -0.121806346 0.09968669 -0.004758874
0.07751654 0.12282851 0.22399537 -0.16817789 -0.08903104 0.066141136 0.25577044 0.08944201
-0.08824235 0.19645157 0.2047164 0.08329786 0.22811599 0.08987833 -0.033008978 -0.39893565
-0.024523135 -0.085824065 -0.089630164 0.18926531 -0.28853515 0.08716599 -0.17191765 0.11140232
0.11943541 0.044829775 0.11032162 0.2035641 0.0881061 0.27928916 -0.03369032 0.00032072005
0.05743657 -0.28419915 -0.10865129 -0.21680304 -0.12482659 0.07003801 -0.007463486 0.3089629
-0.030657733 0.0887232 -0.045458693 0.08756131 0.13909155 -0.11906383 -0.08238932 0.05799336
0.27158418 0.253381 -0.08443992 -0.23442554 -0.014821823 0.0717187 -0.037589617 0.18683657
-0.050118845 0.056421895 -0.050465424 -0.21534269 0.18361332 -0.13749734 0.13354313 -0.51049834
-0.09283682 0.07221865 -0.08426128 0.06866969 0.09144139 0.15016943 -0.13488561 -0.2374676
0.066287905 -0.1494937 0.029843679 0.08101267 -0.073382914 0.23324764 -0.0012131121 -0.15089498
0.038758222 0.112687826 0.08434067 0.1790071 -0.09778233 -0.12787579 -0.10434467 -0.19464023
-0.06562252 -0.3356585 0.2971825 0.035153497 -0.02443249 0.105288126 -0.43874443 0.03457642
-0.069882 -0.2438364 0.40099007 -0.37701198 -0.067702256 0.06378529 0.20224538 0.053635124
-0.2209306 0.2583283 0.017199457 0.25653502 -0.2990209 0.015056465 0.03739162 0.013018233
-0.053812288 -0.016065178 -0.08067637 0.09298052 0.18635102 0.08769115 0.13900222 0.3337494
-0.019050423 0.16333316 -0.121544555 -0.1442599 0.18351993 0.08317835 -0.055879027 0.24374008
-0.11331771 0.09299501 0.10702605 0.16313894 -0.24633549 -0.019068893 0.24318324 0.27727374
-0.21634328 0.012766072 -0.044471227 0.07558354 -0.06748129 0.20350814 -0.13303585 -0.06955512
-0.08228387 0.033253953 -0.111846685 0.176996 -0.03594824 0.0037920112 -0.054396987 0.07322724
0.008964102 0.08587661 -0.1372028 -0.037455354 0.20532471 0.08183348 -0.14887843 -0.007585671
0.02741612 -0.2094174 -0.00620679 -0.03477685 -0.178736 0.026752338 -0.075902544 -0.078701034
-0.056596063 0.04057223 0.053071655 0.10364171 0.045454033 0.14355563 0.08429329 0.057582766
0.20689557 0.17741601 0.25404623 -0.05785786 0.10884534 0.31666672 -0.009823351 0.3244672
0.108802795 -0.021056995 -0.14731923 -0.0605065 -0.019441107 -0.19559318 0.16029768 -0.15871473
-0.0428738 -0.12079719 -0.074615546 -0.05071013 -0.089091904 0.028706728 -0.16174808 -0.025547778
00000000: 8337 12bd 6b6f eebd 4bd3 013e 03b2 44bd
00000010: cda9 2abe cef9 133b 1449 093e 5e4b 193e
00000020: a9c8 91be 8c9d e43c b6ac aebd 5cdd 943e
00000030: ea73 a83d 8d3b 183e 85a4 6cbd ed11 553e
00000040: 1ee0 a7bd c42b 5f3e 8e93 863e 01e6 a5bd
00000050: b618 573e 3462 1bbd 5674 7f3e 596d 083e
00000060: a83f c53b af40 96bd 3be0 b23c 84fd 09bd
00000070: 1b64 303c 06eb 523a ef28 15be a23e cabd
00000080: 9a89 afbc 60f2 093e e6e4 52bb 83f8 5f3d
00000090: cc30 87bd b49c 563a 17bd 8dbc 42f4 703e
000000a0: c907 babd fa2f fe3d a97f 0c3e e070 febd
000000b0: 4007 70be 41cc 59be 839f 05be dc81 3fbe
000000c0: f901 92bc 0e5b 313a eac0 163e 72e7 87bc
000000d0: 16b8 103e 9b75 f9bd 8928 cc3d 54f0 9bbb
000000e0: fec0 9e3d 848d fb3d 0b5f 653e d336 2cbe
000000f0: e855 b6bd 0175 873d 58f4 823e 5f2d b73d
00000100: 68b8 b4bd 9a2a 493e 2da1 513e 1298 aa3d
00000110: 3d97 693e 2112 b83d 6c34 07bd 4b41 ccbe
00000120: bee4 c8bc 87c4 afbd 0590 b7bd c4ce 413e
00000130: e1ba 93be 1584 b23d 2e0b 30be e626 e43d
00000140: 8d9a f43d 6d9f 373d 4df0 e13d 1c73 503e
00000150: f970 b43d fdfe 8e3e dcfe 09bd 5126 a839
00000160: 9c42 6b3d 8d82 91be 9184 debd 9e01 5ebe
00000170: 15a5 ffbd 1770 8f3d 4290 f4bb 6330 9e3e
00000180: ed25 fbbc 82b4 b53d e532 3abd 5853 b33d
00000190: 046e 0e3e bdd7 f3bd bbbb a8bd 728a 6d3d
000001a0: 150d 8b3e 28bb 813e d6ee acbd 400d 70be
000001b0: 3bd7 72bc 41e1 923d 92f7 19bd 1652 3f3e
000001c0: 6b49 4dbd a51a 673d d5b4 4ebd cb82 5cbe
000001d0: 2105 3c3e 1acc 0cbe 88bf 083e 05b0 02bf
000001e0: 3b21 bebd 5fe7 933d 2e91 acbd b2a2 8c3d
000001f0: a045 bb3d 04c6 193e 741f 0abe b52a 73be
00000200: f4c1 873d e014 19be bb7a f43c f9e9 a53d
00000210: c849 96bd 78d8 6e3e 4a01 9fba 3784 1abe
00000220: f1c0 1e3d e0c8 e63d cdba ac3d a34d 373e
00000230: 1a42 c8bd dff1 02be a9b2 d5bd c54f 47be
00000240: 1a65 86bd 6edb abbe 4e28 983e 1dfd 0f3d
00000250: a526 c8bc 4da1 d73d 1ca3 e0be 01a0 0d3d
00000260: 4b1e 8fbd 40b0 79be 924e cd3e b707 c1be
00000270: 7ba7 8abd dda1 823d 6a19 4f3e 81b0 5b3d
00000280: a23b 62be 9b43 843e e0e5 8c3c 8f58 833e
00000290: 4419 99be 64af 763c f527 193d 6d4a 553c
000002a0: 466a 5cbd 1f9b 83bc a739 a5bd 926c be3d
000002b0: cdd2 3e3e 6b97 b33d 9956 0e3e 34e1 aa3e
000002c0: a20f 9cbc cf40 273e 5aec f8bd deb8 13be
000002d0: a6ec 3b3e 6959 aa3d 68e1 64bd 0097 793e
000002e0: 1e13 e8bd 2b74 be3d 7930 db3d e50d 273e
000002f0: 5f3f 7cbe 5e36 9cbc 0705 793e d3f6 8d3e
00000300: 1889 5dbe c928 513c 7627 36bd 8bcb 9a3d
00000310: a133 8abd 7064 503e 8d3a 08be ea72 8ebd
00000320: 7284 a8bd 4c35 083d e00f e5bd 703e 353e
00000330: 763e 13bd 6483 783b 60cf 5ebd 2af8 953d
00000340: 2bde 123c 13e0 af3d e47e 0cbe c96a 19bd
00000350: a440 523e 5098 a73d 9673 18be 3891 f8bb
00000360: c597 e03c 8471 56be 5462 cbbb 2c72 0ebd
00000370: 9206 37be b827 db3c cb72 9bbd 022e a1bd
00000380: 46d1 67bd 112f 263d aa61 593d 1b42 d43d
00000390: 022e 3a3d 3f00 133e f6a1 ac3d e8db 6b3d
000003a0: 6fdc 533e 8bac 353e 5912 823e 5dfc 6cbd
000003b0: 4eea de3d 2422 a23e 1ff2 20bc 9120 a63e
000003c0: 00d4 de3d b87f acbc dada 16be aad5 77bd
000003d0: f542 9fbc 9449 48be 1325 243e 1d86 22be
000003e0: 709c 2fbd 8464 f7bd 09d0 98bd 6db5 4fbd
000003f0: d175 b6bd 5f2a eb3c 4aa1 25be 9349 d1bc

fc3.bias f4 [10]
-0.3890562 -0.63893425 -0.032986317 0.47155532 0.59287566 -0.0009035376 0.37864155 -0.2667102
0.29518494 -0.26558515
00000000: 6032 c7be 3291 23bf a91c 07bd b36f f13e
00000010: b3c6 173f 62db 6cba 4edd c13e 3d8e 88be
00000020: 7b22 973e c7fa 87be
