model/cifar10_pytorch.pth (torch, 251688 bytes, 10 tensors)

conv1.weight f4 [6, 3, 5, 5]
0	0x3d5665ee	0.0523433
1	0xbce1fff5	-0.02758787
2	0x3df30035	0.11865274
3	0x3f0aaead	0.54172784
4	0x3f27a310	0.6548319
5	0x3e1d0d8a	0.15337196
6	0xbd9ae708	-0.07563597
7	0xbebf1549	-0.37320927
8	0xbdc690db	-0.09695598
9	0x3f1c42fb	0.61039704
10	0x3e96bd1f	0.29441163
11	0x3e217aa8	0.15769446
12	0xbe04b66a	-0.1296021
13	0xbeba56a8	-0.36394238
14	0x3e8e6c9f	0.27817246
15	0x3dbba550	0.0916239
16	0x3e7236b0	0.23653674
17	0x3dbe8d70	0.09304321
18	0xbe26ccda	-0.16289082
19	0x3d8053f9	0.062660165
20	0xbe0aa5e6	-0.13539848
21	0x3da6ceb1	0.08144892
22	0x3e5c86cb	0.21535794
23	0xbe70e2a7	-0.23523961
24	0x3d5693d8	0.05238709
25	0xbe0d40f1	-0.13794304
26	0xbf03300f	-0.51245207
27	0xbed78f7e	-0.42101663
28	0xbe071a86	-0.13193712
29	0x3d0e1191	0.03468472
30	0x3e9e04dd	0.30863085
31	0xbdc83949	-0.09776551
32	0xbf272ff9	-0.65307575
33	0xbf255dbd	-0.6459616
34	0x3e606c71	0.21916367
35	0x3e6a59b0	0.22885776
36	0x3e6d8cad	0.23198195
37	0xbeaad800	-0.3336792
38	0xbf30f55f	-0.69124407
39	0xbbee178c	-0.0072659906
40	0x3d6801f6	0.056642495
41	0x3e8962ef	0.26833293
42	0xbdd4e68e	-0.10395537
43	0xbf0579b2	-0.5213882
44	0xbd31af5b	-0.043380123
45	0xbc34c353	-0.011032897
46	0x3e146356	0.14491019
47	0xbc72515b	-0.0147899045
48	0xbe880f38	-0.2657411
49	0xbd8d994f	-0.06914007
50	0x3d955354	0.07291284
51	0xbdb53b7e	-0.08849238
52	0xbea54729	-0.32280853
53	0xbd794ced	-0.060864378
54	0x3e6fee8f	0.23430847
55	0x3ecb642d	0.39724866
56	0x3da4bd0f	0.080438726
57	0xbf0a5d31	-0.5404845
58	0xbeb83025	-0.3597423
59	0x3e0f744a	0.14009205
60	0x3f001aa5	0.50040656
61	0x3efcfad2	0.4941011
62	0xbe9f7077	-0.3114049
63	0xbf01d6aa	-0.50718176
64	0x3cffe7e7	0.03123851
65	0x3e8efc6b	0.27926955
66	0x3f154deb	0.5832202
67	0x3e732e99	0.23748244
68	0xbeca587e	-0.3952064
69	0xbdc1f8a9	-0.09471256
70	0x3e3ebee4	0.18627506
71	0x3ec44340	0.38332558
72	0x3ecc6a1c	0.39924705
73	0x3c385ba3	0.011252317
74	0x3e19297d	0.14957233
75	0x3d794049	0.060852323
76	0xbd5cae62	-0.053877242
77	0xbdce344d	-0.10068569
78	0x3dda7fb8	0.10668892
79	0x3c853df0	0.016264886
80	0x3d0bf51e	0.03416931
81	0xbe0b9370	-0.13630462
82	0x3e475a29	0.19467987
83	0xbd87d264	-0.06631926
84	0x3e25149f	0.16121148
85	0xbd1b15e6	-0.03786268
86	0xbea63eb8	-0.32469726
87	0x3f114ade	0.56754863
88	0xbf018d81	-0.5060654
89	0x3e969da9	0.2941716
90	0xbedbe6b9	-0.42949465
91	0x3c809230	0.015694708
92	0x3f8a0935	1.078406
93	0xbf8098b8	-1.0046606
94	0x3edff157	0.43738815
95	0xbee1e8b6	-0.44122857
96	0x3ec291fc	0.38002002
97	0x3f519beb	0.81878537
98	0xbfa582e2	-1.2930567
99	0x3e1099e1	0.141212
100	0x3d9b5dce	0.07586251
101	0x3dac9b80	0.08428097
102	0x3dc33bc4	0.09532884
103	0xbdd2db19	-0.10295696
104	0xbdb8664f	-0.09003889
105	0x3e415eb3	0.18883781
106	0xbdeb2833	-0.11482277
107	0x3e337571	0.17525269
108	0xbe4b1d66	-0.19835433
109	0xbdead86b	-0.1146706
110	0x3d73b5fc	0.059499726
111	0xbd4daf03	-0.050215732
112	0x3efaa53b	0.48954186
113	0xbf1f286b	-0.6217105
114	0x3c68b8d9	0.014204227
115	0xbeb508d1	-0.3535829
116	0x3e685d23	0.22691779
117	0x3f8a304d	1.079599
118	0xbf884ce0	-1.064846
119	0x3ed9b6fb	0.42522416
120	0xbea5d6a4	-0.3239032
121	0x3f077e2e	0.5292691
122	0x3f750ff6	0.9572748
123	0xbfab44bb	-1.338035
124	0x3e308fb4	0.17242318
125	0xbe26028a	-0.16211906
126	0xbdb4a225	-0.08819989
127	0x3d8e4a1b	0.06947728
128	0x3cb71e31	0.022353264
129	0x3b5dba52	0.003383298
130	0xbcf29751	-0.029613169
131	0xbdbc2a1a	-0.09187718
132	0x3e5d0192	0.2158263
133	0xbd9e0441	-0.07715655
134	0x3d46f449	0.048572812
135	0x3d58c7f4	0.052925065
136	0xbe91e078	-0.2849157
137	0x3f06120e	0.523713
138	0xbec9da54	-0.39424384
139	0x3d933f85	0.0718985
140	0xbee6c01d	-0.45068446
141	0x3dafb9d2	0.08580364
142	0x3f77b94e	0.9676713
143	0xbf5e90c7	-0.8693966
144	0x3e94f12b	0.29090247
145	0xbee097ea	-0.438659
146	0x3e901753	0.28142795
147	0x3f73187c	0.94959235
148	0xbf83d145	-1.0298239
149	0x3e6394e1	0.22224762
150	0xbe821630	-0.25407553
151	0xbf01b530	-0.50667095
152	0xbf033689	-0.5125509
153	0xbe4bafb1	-0.1989124
154	0xbe91d369	-0.28481606
155	0x3ca2921d	0.019845063
156	0x3d957dc7	0.07299381
157	0x3d9f9112	0.07791342
158	0xbd165400	-0.036701202
159	0x3bed5d20	0.0072437674
160	0x3db7fdaa	0.089839295
161	0x3ecad773	0.396175
162	0x3eaf36bc	0.34221447
163	0x3e450e45	0.19243725
164	0x3dd90279	0.10596175
165	0x3eb50cea	0.35361415
166	0x3ec529ff	0.38508603
167	0x3e943f16	0.2895438
168	0x3e137a28	0.14402068
169	0x3e6bdea7	0.23034154
170	0x3ec27d5a	0.3798626
171	0x3eae1f80	0.34008408
172	0x3e75150a	0.23933807
173	0x3e3aaeb3	0.18230705
174	0x3e436535	0.19081576
175	0x3e07fa33	0.13279037
176	0xbe1d86a4	-0.15383393
177	0xbdc4c590	-0.096079946
178	0x3d5441cb	0.051820558
179	0x3e64a432	0.2232826
180	0xbd83583f	-0.06413316
181	0x3e0be5d8	0.13661897
182	0x3dc6f515	0.097147144
183	0x3d0c29b5	0.034219462
184	0xbd05dfa3	-0.03268398
185	0xbe0cf08d	-0.13763638
186	0x3cf1d27b	0.02951931
187	0x3cef85c7	0.029238595
188	0xbdb7767f	-0.08958148
189	0xbded7c61	-0.11595989
190	0xbe57b154	-0.21063739
191	0x3bd2cffd	0.0064334855
192	0xbdd16fa7	-0.10226374
193	0xbdd533e3	-0.10410287
194	0xbe5073e4	-0.20356709
195	0xbe586920	-0.21133852
196	0xbe90288a	-0.2815593
197	0xbe45c6a9	-0.19314064
198	0xbe4c2596	-0.19936213
199	0xbe3ba0b4	-0.18323022
200	0x3ddf070e	0.108900174
201	0xbc03e450	-0.008050039
202	0xbcf18448	-0.029482022
203	0x3e1585a6	0.14601764
204	0x3e83aec8	0.25719285
205	0x3d933c1f	0.071892016
206	0x3df6b880	0.12046909
207	0x3e32f52a	0.17476335
208	0x3e57d580	0.21077538
209	0x3dbb3245	0.091404475
210	0xbd86a6ca	-0.06574781
211	0x3e95fe5f	0.29295632
212	0x3e76a743	0.24087243
213	0x3b95f865	0.00457673
214	0xbe3ee2ff	-0.1864128
215	0x3b877880	0.0041342378
216	0x3e1d8b8d	0.15385266
217	0x3e390d8e	0.18071577
218	0x3c50761b	0.012723471
219	0xbdd4be2a	-0.103878334
220	0xbd3e7306	-0.046496414
221	0x3d94d86c	0.07267842
222	0xbd7ea773	-0.06217141
223	0xbd89eb32	-0.06734313
224	0xbd90c1ba	-0.070682004
225	0x3e3b9eac	0.18322247
226	0xbe038674	-0.12844259
227	0xbe460572	-0.19338015
228	0xbcde205b	-0.027115038
229	0x3d89befe	0.06725882
230	0x3e5cbb47	0.21555816
231	0x3f07863e	0.5293921
232	0x3f066652	0.5249988
233	0x3f1eb91c	0.62001204
234	0x3e3fcd87	0.18730746
235	0xbcf4fae3	-0.029904788
236	0x3f11b43a	0.5691563
237	0x3f6b9c06	0.9203495
238	0x3f27360b	0.6531684
239	0x3e18f8c9	0.14938654
240	0xbedc8cad	-0.43076077
241	0xbf12dfe9	-0.5737291
242	0xbf636b43	-0.88835543
243	0xbf23167a	-0.6370617
244	0xbe78795f	-0.2426505
245	0xbdacc985	-0.08436874
246	0xbe8eb4fd	-0.27872458
247	0xbedfa28e	-0.43678707
248	0xbe8092a2	-0.25111872
249	0x3dc469c3	0.09590485
250	0xbe08e291	-0.13367678
251	0xbe7b4453	-0.24537782
252	0xbf0d7880	-0.55261993
253	0xbf04a9ef	-0.518218
254	0x3cdd41a4	0.027008839
255	0x3d9ee7f9	0.07759089

conv1.bias f4 [6]
0	0xbeaa8bef	-0.33309886
1	0xbe1242d9	-0.14283313
2	0x3d782541	0.060582403
3	0xbf19378f	-0.598504
4	0xbef098a5	-0.4699146
5	0x3ed7c39a	0.4214142

conv2.weight f4 [16, 6, 5, 5]
0	0xbe2189df	-0.1577525
1	0xbe255712	-0.16146496
2	0xbd0b14af	-0.033955272
3	0xbe2fa369	-0.1715218
4	0xbd7ccdcf	-0.061719712
5	0xbe4263d6	-0.18983397
6	0xbd8b953a	-0.06815572
7	0xbcfd0da6	-0.030890297
8	0xbb5d0028	-0.0033722017
9	0x3e200cd8	0.156299
10	0xbc41514e	-0.01179917
11	0x3dccf3bf	0.100074284
12	0xbb786b8a	-0.0037905895
13	0xbd8bc724	-0.068250924
14	0x3c0f3e43	0.008742872
15	0x3e38dcbd	0.18052955
16	0x3dde2434	0.10846749
17	0x3e234f35	0.15948184
18	0x3e23e36d	0.16004725
19	0xbe8d2c1a	-0.2757271
20	0x3eff2949	0.49836186
21	0xbe1981a7	-0.14990865
22	0x3cb50157	0.022095365
23	0x3e26d754	0.16293079
24	0x3d7312eb	0.059344213
25	0xbd82da22	-0.06389262
26	0xbeaecbf7	-0.34139988
27	0xbecb63bd	-0.39724532
28	0xbe98443f	-0.29739568
29	0xbdd71f00	-0.1050396
30	0x3df19c4d	0.1179739
31	0xbe57a200	-0.21057892
32	0xbea4a24b	-0.3215507
33	0xbe46f77e	-0.19430348
34	0xbd478d55	-0.04871877
35	0x3e4c4253	0.19947176
36	0x3e1e2492	0.15443638
37	0x3d1097ef	0.035301145
38	0xbd890dd4	-0.06692091
39	0xbd72fb72	-0.05932183
40	0xbbbc0749	-0.005738173
41	0x3e85b2c0	0.26112938
42	0x3e17f5f2	0.14839914
43	0x3e042918	0.12906301
44	0x3e78df4a	0.24303928
45	0xbe396370	-0.18104339
46	0x3d0f3cd8	0.034970134
47	0xbcb0d3bd	-0.02158534
48	0xbc14bf65	-0.009078835
49	0x3d87d47a	0.066323236
50	0xbd8a75aa	-0.06760724
51	0x3cb48f31	0.022040935
52	0x3e03fe2a	0.12889925
53	0x3d9e2497	0.07721823
54	0x3dfc6267	0.12323456
55	0xbddba7a1	-0.10725332
56	0x3dec7d81	0.115473755
57	0x3dc2f678	0.095196664
58	0x3e3c9dd1	0.18419577
59	0x3e7a649d	0.24452443
60	0xbe1a991d	-0.1509747
61	0xbd0bcc2a	-0.034130253
62	0xbdadc9d9	-0.08485765
63	0xbc8ef632	-0.01745138
64	0x3e1c5b77	0.15269266
65	0xbeb8b88c	-0.36078298
66	0xbeb0027c	-0.34376895
67	0xbe9534bc	-0.29141796
68	0xbe8bdffa	-0.27319318
69	0xbe366dd2	-0.1781533
70	0xbe798817	-0.2436832
71	0xbe761fb6	-0.24035534
72	0xbe74c719	-0.23904075
73	0xbeb9569a	-0.36198884
74	0xbeb98636	-0.36235207
75	0x3e0cb86c	0.13742226
76	0x3e8800af	0.26563022
77	0x3d9c21e3	0.07623651
78	0xbd204353	-0.039126705
79	0x3cae42cb	0.021272084
80	0x3d593171	0.053025667
81	0x3e18fc65	0.14940031
82	0x3d5b1fb6	0.05349704
83	0x3ca0e2fd	0.019639486
84	0xbbee0b01	-0.0072644954
85	0xbdce3610	-0.10068905
86	0x3e10c709	0.14138426
87	0x3dad254f	0.08454382
88	0x3e30b5e3	0.17256884
89	0xbd8bb40d	-0.06821451
90	0xbe09388a	-0.13400474
91	0xbcea2926	-0.028584074
92	0x3dece449	0.115669794
93	0x3e2104ce	0.15724489
94	0xbd4c4842	-0.049873598
95	0xbe6c2caa	-0.23063913
96	0x3dc779e1	0.097400434
97	0x3e930f34	0.28722537
98	0x3e9392eb	0.28823027
99	0x3e27b642	0.1637812
100	0x3d3eb414	0.046558455
101	0xbe4eea83	-0.20206647
102	0xbed46548	-0.4148352
103	0xbeeb372c	-0.4594053
104	0xbec03fd0	-0.37548685
105	0x3e32c7db	0.17459051
106	0x3d75663a	0.059911944
107	0xbe0910cd	-0.13385315
108	0xbc05edc7	-0.008174366
109	0x3ca7b652	0.02047268
110	0x3e122f74	0.14275914
111	0x3e15ff9a	0.14648286
112	0x3d9c01af	0.076175086
113	0xbd8478b4	-0.06468335
114	0x3b5b2158	0.0033436622
115	0x3d76c6c6	0.06024816
116	0x3eaedd1b	0.34153065
117	0x3e1c8177	0.15283762
118	0x3e669718	0.22518575
119	0x3e6e9004	0.23297125
120	0xbebb1ced	-0.36545506
121	0x3cdc0590	0.026858121
122	0x3dcd60d2	0.10028233
123	0x3e616ced	0.22014208
124	0x3e568636	0.20949635
125	0x3d2b2a22	0.041788228
126	0x3deda808	0.11604315
127	0x3ad235d1	0.0016037767
128	0xbcb07b4c	-0.021543168
129	0x3d9371ae	0.07199417
130	0x3d704e6f	0.05866855
131	0x3e158447	0.14601241
132	0x3b267beb	0.002540345
133	0x3e1accd7	0.15117203
134	0x3c917397	0.017755313
135	0xbe2b42ab	-0.1672465
136	0xbdd74b70	-0.105124354
137	0xbcd0943e	-0.025461312
138	0x3d54ac3a	0.05192206
139	0xbc6f787f	-0.014616131
140	0xbdd8f4fb	-0.10593601
141	0x3d85c0b9	0.065308996
142	0x3d8a698c	0.06758413
143	0x3daa7929	0.08323891
144	0x3ded0fa1	0.115752466
145	0xbb5f3b8b	-0.003406259
146	0xbb32ea0c	-0.0027300147
147	0xbe4a8adf	-0.19779538
148	0xbe76a080	-0.24084663
149	0xbe32c27d	-0.17457004
150	0x3e14868c	0.1450445
151	0xbdfd53f3	-0.12369528
152	0x3e082eda	0.13299122
153	0xbd7deb00	-0.06199169
154	0x3e977ba0	0.29586506
155	0x3dfebd07	0.12438398
156	0xbd7d11e9	-0.06178466
157	0xbc9746ec	-0.018466435
158	0x3d4cc1c7	0.049989488
159	0x3e15bfbf	0.14623927
160	0x3dcbf83a	0.09959455
161	0x3e37b767	0.17941056
162	0xbd8be919	-0.06831569
163	0x3e752783	0.23940854
164	0xbdd10718	-0.10206431
165	0xbce5ff22	-0.028075758
166	0x3e8f2450	0.27957392
167	0x3df279b2	0.11839618
168	0x3d9258e2	0.07145859
169	0xbe90690d	-0.28205147
170	0x3d3d8ad0	0.04627496
171	0x3dccf0bb	0.10006853
172	0xbc39b611	-0.011334912
173	0xbe38b581	-0.18037988
174	0xbe0f9176	-0.14020333
175	0x3d9a99d0	0.07548869
176	0x3ec3e8dc	0.38263595
177	0x3da9c7f3	0.082900904
178	0x3e2c7429	0.16841187
179	0x3e9a2409	0.30105618
180	0x3eb95dd2	0.36204392
181	0x3d8537fc	0.06504819
182	0x3e9981ae	0.2998175
183	0x3e986f7f	0.29772565
184	0x3e69f170	0.22846007
185	0x3e3556f3	0.1770895
186	0x3d80c080	0.062867165
187	0x3e8536a6	0.26018256
188	0x3e5f14ae	0.21785232
189	0xbe4d5392	-0.20051411
190	0xbe10a871	-0.14126755
191	0xbe421f2c	-0.18957204
192	0xbd9d055d	-0.076670386
193	0xbe7d56f9	-0.24740209
194	0xbe9a2c82	-0.30112082
195	0xbf3e6d80	-0.74385834
196	0xbf1fde5f	-0.62448686
197	0xbf46f501	-0.77717596
198	0xbf5ad6bd	-0.85483915
199	0xbf223240	-0.63357925
200	0xbd3473ba	-0.044055678
201	0x3e01e68b	0.12685601
202	0xbdc1b776	-0.094588205
203	0xbd820291	-0.06348146
204	0xbe5cf1d7	-0.2157663
205	0xbe3cb525	-0.18428476
206	0xbe180aa1	-0.14847805
207	0xbe623f71	-0.22094513
208	0xbe923b05	-0.28560653
209	0xbe707fb1	-0.2348621
210	0xbe1e590f	-0.1546366
211	0xbe215559	-0.15755214
212	0xbe42b8d8	-0.19015825
213	0xbea713bf	-0.32632253
214	0xbdb80490	-0.08985245
215	0x3bf394ea	0.0074335234
216	0xbca10e33	-0.019660091
217	0xbbbf965e	-0.0058467826
218	0x3dc9c7eb	0.098525845
219	0x3e20b199	0.15692748
220	0xbc3af769	-0.011411526
221	0x3dba5740	0.09098673
222	0x3e59ad46	0.21257505
223	0x3eb6ffcd	0.35742036
224	0x3ec00916	0.37506932
225	0xbd0a04c4	-0.03369595
226	0xbd3e11ab	-0.04640357
227	0xbd9d8884	-0.07692054
228	0x3c199c97	0.009375713
229	0x3dd2beb2	0.102902785
230	0xbdff2fe5	-0.12460307
231	0x3de46390	0.111518025
232	0xbd5ff5b3	-0.054677676
233	0xbdd1fc20	-0.10253167
234	0x3d90aec0	0.07064581
235	0xbde8b459	-0.113625236
236	0xbe674e2e	-0.22588417
237	0xbc04df48	-0.008109875
238	0x3d69f3bf	0.05711722
239	0x3db2d423	0.08731868
240	0x3d19ae3b	0.037519675
241	0xbe46a061	-0.19397117
242	0x3d912c30	0.07088506
243	0x3e874d90	0.26426363
244	0x3cb01ded	0.021498645
245	0xbde9d483	-0.114174865
246	0xbe30a243	-0.17249398
247	0x3d9c0362	0.07617833
248	0xbb0071c9	-0.0019599071
249	0xbe5a8cc2	-0.21342757
250	0x3e14225a	0.14466229
251	0xbcd67e84	-0.026183374
252	0xbaf99e79	-0.0019044421
253	0xbdf7e329	-0.12103874
254	0xbd954dfc	-0.07290265
255	0xbc82b549	-0.015955584

conv2.bias f4 [16]
0	0xbf5e275f	-0.86778826
1	0xbeae66d8	-0.3406284
2	0xbec7075e	-0.38872808
3	0xbec9ceed	-0.39415684
4	0x3f850992	1.0393546
5	0x3fa27de8	1.2694674
6	0x3c8a49f7	0.016880972
7	0x3f884b6f	1.064802
8	0x3c4176f8	0.0118081495
9	0x3f222c89	0.63349205
10	0xbe8d05f4	-0.27543604
11	0xbe8ef429	-0.27920654
12	0x3ea70e9f	0.32628343
13	0xbec5b4bf	-0.3861446
14	0x3f9e4c1f	1.236698
15	0x3e97ecc5	0.29672828

fc1.weight f4 [120, 400]
0	0x3e300fef	0.17193578
1	0x3df0fbff	0.117668144
2	0x3db5ca66	0.08876495
3	0x3cedce02	0.029028896
4	0x3d113b00	0.035456657
5	0xbd9148d3	-0.07093968
6	0xbc4d9e58	-0.012549959
7	0xbcd9b808	-0.02657701
8	0x3d16ee14	0.036848143
9	0x3d0c3671	0.034231607
10	0xbdc8b457	-0.09800022
11	0xbdf20dbc	-0.11819026
12	0xbdfad151	-0.12246955
13	0xbdbcbd5b	-0.09215804
14	0xbd827e64	-0.06371763
15	0xbe0a1804	-0.13485724
16	0xbdf610e9	-0.12014944
17	0xbdfdbd9d	-0.123896815
18	0xbd92c908	-0.0716725
19	0xbddf1757	-0.108931236
20	0xbdcf68f9	-0.10127444
21	0xbdcf2bc2	-0.10115768
22	0xba81f2df	-0.00099143
23	0xbd79777d	-0.06090497
24	0x3c8cc2dd	0.017182762
25	0x3daa66d2	0.08320393
26	0x3d2a1b3b	0.041529875
27	0x3dbaecd6	0.09127204
28	0x3dc92f9a	0.098235324
29	0xbc74cd45	-0.014941518
30	0x3c6014f2	0.013676869
31	0xbd05837b	-0.032596093
32	0xbc51ad06	-0.0127976
33	0xbda2bb00	-0.07945824
34	0x38f9b5f9	0.0001190714
35	0xbcadaf1e	-0.021201666
36	0x3d212f55	0.03935178
37	0x3da1087c	0.078629464
38	0x3d719ff0	0.05899042
39	0x3d825e1d	0.06365607
40	0xbdc0ed87	-0.09420305
41	0x3d86b61e	0.06577705
42	0x3e29d032	0.16583326
43	0x3c36a059	0.011146628
44	0xbd687cab	-0.056759518
45	0xbd1737c5	-0.03691842
46	0x3dd94a82	0.10609914
47	0x3df16265	0.117863454
48	0x3dbf8358	0.09351224
49	0xbcb68ce2	-0.022283975
50	0xbda33a8c	-0.07970151
51	0xbdb69310	-0.08914769
52	0xbdc06879	-0.093949266
53	0xbe3b4ae2	-0.18290284
54	0xbda7411c	-0.081667155
55	0xbc9fed55	-0.019522348
56	0xbd6d33ea	-0.057910837
57	0xbd5c40cd	-0.053772736
58	0x3d3fbb03	0.046809208
59	0x3e37f715	0.17965348
60	0x3d33b849	0.04387692
61	0x3d0145ad	0.03156059
62	0x3dc5ad82	0.096522346
63	0x3b2e07f6	0.0026555038
64	0x3d3f4a9a	0.046702005
65	0xbcb3b2cf	-0.021935849
66	0x3d6245ae	0.055242233
67	0xbd025c65	-0.031826396
68	0xbd726f2c	-0.059188053
69	0xbdf9cfd9	-0.12197847
70	0xbb448bc9	-0.0029990545
71	0xbcc6b7e9	-0.024257617
72	0xbb7e07ef	-0.0038762053
73	0x3beea621	0.0072829877
74	0xbd7d5667	-0.061849978
75	0xbbd22063	-0.006412552
76	0xbdeb298f	-0.11482536
77	0xbddd0877	-0.1079263
78	0xbe0d032c	-0.13770741
79	0xbe222bba	-0.15836993
80	0xbd675800	-0.056480408
81	0xbb274055	-0.0025520523
82	0x3c651c58	0.013983808
83	0xbd0c8a3b	-0.034311514
84	0xbc9c3b2f	-0.01907119
85	0xbdb34bd2	-0.08754696
86	0xbb8338ac	-0.0040045585
87	0x3d9c7761	0.07639957
88	0x3d7a8e42	0.061170824
89	0x3cc3baee	0.023892846
90	0xbc50861e	-0.0127272885
91	0x3d24f71a	0.040274717
92	0xbc9900e4	-0.018677182
93	0x3d06c11a	0.032899
94	0x3d8636ca	0.06553419
95	0x3e3f3ddb	0.1867594
96	0x3db32118	0.087465465
97	0x3dcf993f	0.10136651
98	0xbcd75767	-0.026286794
99	0x3d01cd6e	0.031690054
100	0x3d668082	0.0562749
101	0x3d78b588	0.060719997
102	0x3df153ec	0.11783585
103	0x3e09a5e0	0.13442183
104	0xbc324117	-0.010879776
105	0xbd574e68	-0.05256501
106	0xbd7ea4da	-0.062168933
107	0xbc453c2f	-0.012038275
108	0xbcbdfad9	-0.023190903
109	0xbcd60974	-0.026127554
110	0xbd4b90e0	-0.04969871
111	0xbc6ac5b3	-0.014329362
112	0xbcb183ef	-0.021669356
113	0xbd35c5cb	-0.044378083
114	0x3cac8b17	0.021062417
115	0xbc571ed6	-0.01312991
116	0xbca72c11	-0.020406755
117	0xbd8f67fc	-0.07002255
118	0xbcc51686	-0.024058592
119	0xbc626264	-0.013817403
120	0xbd0049e7	-0.03132048
121	0xbd863e6e	-0.06554876
122	0xbbe0e51e	-0.0068632504
123	0xbd436ce8	-0.047711283
124	0xbd0d70e1	-0.034531478
125	0xbe4f8c76	-0.20268425
126	0xbe15c4ec	-0.14625901
127	0x3c9a1a62	0.018811408
128	0x3d837e42	0.06420566
129	0x3d87fe76	0.066403314
130	0xbdfa54c0	-0.12223196
131	0xbe075f32	-0.13219908
132	0xbda5964a	-0.08085306
133	0x3cf566e5	0.02995629
134	0x3c8edc21	0.01743895
135	0x3c4f337f	0.012646555
136	0xbd5330a2	-0.05156005
137	0xbd7c9ef3	-0.061675023
138	0xbd86ea55	-0.06587664
139	0x3cfc38ff	0.030788897
140	0xbc9b674a	-0.01897015
141	0x3cf3266d	0.029681409
142	0x3b55fdbd	0.003265246
143	0xbd9d1bbe	-0.07671307
144	0xba9fd2a3	-0.0012193512
145	0x3dd9df00	0.10638237
146	0x3dfd250c	0.12360582
147	0x3cd7efab	0.0263594
148	0xbc025890	-0.007955685
149	0x3d5921e0	0.05301082
150	0x3d08cc49	0.033397947
151	0x3d8b9205	0.068149604
152	0xbdbd89a8	-0.092547715
153	0xbd1082d2	-0.03528101
154	0x3d054b39	0.03254244
155	0x3c5a08c1	0.013307751
156	0xbdbc5a3e	-0.091969
157	0xbd82c9e7	-0.06386166
158	0xbdd98b89	-0.10622317
159	0x3c5e44c4	0.0135662
160	0x3db7d282	0.08975698
161	0xbbfb619d	-0.0076715485
162	0xbe0756fa	-0.13216773
163	0xbd82edb2	-0.06392993
164	0x3e0c4d1a	0.13701287
165	0x3bad0881	0.0052805548
166	0x3cef3cf1	0.029203864
167	0xbb5ff211	-0.0034171382
168	0xbc479c20	-0.012183219
169	0x3db34e35	0.08755151
170	0x3d7d86e9	0.06189624
171	0x3c5e52e6	0.013569569
172	0xbd12495b	-0.03571449
173	0x3d37be61	0.044859294
174	0xbda6a210	-0.0813638
175	0xbd7f0ee6	-0.062270068
176	0xbc09d3e0	-0.008412331
177	0xbde929ae	-0.11384903
178	0xbddf732e	-0.10910641
179	0xbceb7065	-0.028740117
180	0x3ba8608e	0.0051384633
181	0xbce5c18a	-0.028046388
182	0xbcaf5b43	-0.021405822
183	0xbd87651b	-0.06611081
184	0xbd42a62b	-0.04752175
185	0xbd1e5432	-0.038654514
186	0x3cb8dc19	0.022565888
187	0xbe03770e	-0.12838385
188	0xbd148d08	-0.03626731
189	0xbd6e9918	-0.05825147
190	0xbdc404d8	-0.09571236
191	0x3cf52ecf	0.029929547
192	0xbb4745e4	-0.0030406648
193	0x3b7cf191	0.0038596133
194	0xbd3cf659	-0.046133373
195	0xbe44faf4	-0.19236356
196	0xbdc5feeb	-0.09667762
197	0xbc03a078	-0.008033864
198	0xbd6bb9a9	-0.057550106
199	0xbe477761	-0.19479133
200	0x3e62e385	0.22157104
201	0x3e5f237b	0.21790878
202	0x3d684eb8	0.056715697
203	0x3d978b2e	0.07399593
204	0x3c0c2c3c	0.008555468
205	0x3d404a4f	0.046945866
206	0x3d1b1d3b	0.037869673
207	0x3b7f2ee1	0.0038937854
208	0x3d6089fb	0.05481909
209	0xba98d099	-0.0011658847
210	0xbd93891a	-0.072038844
211	0xbcf11f2a	-0.029433805
212	0xbd97be3e	-0.07409333
213	0x3d586cfc	0.05283831
214	0x3d13741b	0.0359994
215	0x3db69d8b	0.08916768
216	0x3dbe73d1	0.09299434
217	0x3d356ac5	0.044291276
218	0x3d01948f	0.031635817
219	0x3cd09676	0.02546237
220	0x3cf826e7	0.030291988
221	0x3d917b36	0.07103579
222	0x3d7094e0	0.05873573
223	0x3e0a993b	0.13535015
224	0x3a57c903	0.0008231552
225	0x3bc7299c	0.0060779583
226	0xbcc7f569	-0.024409013
227	0x3d5995d1	0.05312139
228	0xbe0d9f5b	-0.1383032
229	0xbdf814ea	-0.12113364
230	0x3cef5e51	0.029219778
231	0x3dde75f2	0.1086234
232	0x3d0c97c9	0.03432444
233	0x3cc0044a	0.023439545
234	0xbe09177f	-0.1338787
235	0x3d4ca54e	0.049962334
236	0x3b9937ab	0.0046758256
237	0x3e21c031	0.15795971
238	0xbc28ce31	-0.010303066
239	0x3bbd3603	0.005774261
240	0x3bc82de1	0.006108985
241	0xbd2df2bc	-0.042467818
242	0x3d505c66	0.050869368
243	0xbd21f79c	-0.03954278
244	0x3d02fa80	0.031977177
245	0xbd9ce070	-0.076599956
246	0x3df66ac0	0.1203208
247	0x3db9e1f2	0.09076299
248	0x3d11908c	0.03553824
249	0x3d295d94	0.04134901
250	0xbd042c97	-0.032269087
251	0x3c26f6ee	0.010190709
252	0x3d08fa9e	0.033442132
253	0x3d213784	0.039359584
254	0x3e95c00a	0.29248077
255	0xbd75c906	-0.060006164

fc1.bias f4 [120]
0	0xbe6764a9	-0.22596993
1	0x3c8b22ca	0.016984362
2	0xbdef486e	-0.11683737
3	0x3e6d25cc	0.2315895
4	0xbdd780a0	-0.1052258
5	0x3e5ca4cc	0.2154724
6	0xbdad1c8e	-0.08452712
7	0x3d0b7b87	0.03405335
8	0x3e4595fb	0.19295494
9	0xbd03376e	-0.032035284
10	0x3db646ca	0.08900221
11	0x3e768b48	0.24076569
12	0x3d450549	0.048100743
13	0xbd198f95	-0.037490446
14	0x3d1a2310	0.037631094
15	0xbb2cff8f	-0.0026397442
16	0x3daa26e6	0.083082005
17	0x3e2255b4	0.15853006
18	0xbdad25e1	-0.084544905
19	0x3d170419	0.036869142
20	0x3ddce991	0.10786737
21	0x3cd93262	0.026513282
22	0x3d21eaa7	0.039530423
23	0x3e487918	0.19577444
24	0x3cd6a7c8	0.026203051
25	0x3e1689a2	0.1470094
26	0xbde7d6cc	-0.11320266
27	0x3e84ee4d	0.2596306
28	0x3e334cea	0.17509809
29	0x3da3fef2	0.08007611
30	0x3e061e26	0.13097438
31	0xbbb4c9ba	-0.0055172117
32	0x391f5e25	0.00015198493
33	0x3e0bec8c	0.13664454
34	0xbd64e6d6	-0.055884205
35	0x3d76d2d8	0.06025967
36	0xbdb70cb9	-0.089379735
37	0x3e114278	0.14185512
38	0xbdb4e9c1	-0.088336475
39	0xbe0f7c6d	-0.14012308
40	0xbe52df3b	-0.20592968
41	0x3e607caf	0.21922563
42	0xbd28e430	-0.04123324
43	0xbc551120	-0.013004571
44	0x3e16b439	0.14717187
45	0x3dd952ae	0.10611473
46	0x3e8346af	0.25639865
47	0x3c91c176	0.017792445
48	0x3b03dd76	0.0020121015
49	0x3d841dcc	0.06450996
50	0xbdf8d1d7	-0.12149399
51	0x3cbd75fd	0.02312755
52	0x3dd349b0	0.10316789
53	0x3dd06f0a	0.10177429
54	0x3e5406d8	0.20705736
55	0x3d51369f	0.05107748
56	0xbd406279	-0.04696891
57	0xbd5fdbeb	-0.05465309
58	0x3cc3c975	0.023899773
59	0xbda24a53	-0.079243325
60	0xbcfc2498	-0.030779168
61	0xbd141462	-0.03615225
62	0xbd4c7d94	-0.049924448
63	0xbbf1e0cc	-0.007381534
64	0xbd850469	-0.06494982
65	0x3cb0de9d	0.021590525
66	0xbdaf0a14	-0.08546844
67	0x3db1ce67	0.08681946
68	0xbcae7337	-0.021295173
69	0xbd9eb766	-0.07749824
70	0x3e52b923	0.20578437
71	0x3e689d42	0.22716239
72	0xbcaceb27	-0.021108223
73	0xbb6c8ede	-0.0036095898
74	0x3d310567	0.043218043
75	0x3dd21657	0.10258167
76	0x3d0eb4e1	0.03484047
77	0x3c136a40	0.0089975
78	0x3e1e7cb4	0.15477258
79	0xbe35266c	-0.17690438
80	0x3e1a9e83	0.1509953
81	0x3dae26f5	0.08503524
82	0x3d091d71	0.033475343
83	0x3dd67422	0.10471369
84	0x3d8ccaf4	0.06874648
85	0xbda37998	-0.079821765
86	0x3d1cbf96	0.038268648
87	0x3d026323	0.031832825
88	0xbe1b208a	-0.15149131
89	0x3e4b35e3	0.19844775
90	0xbe2d1dc7	-0.1690589
91	0xbd6349e2	-0.055490382
92	0x3df77aed	0.12083993
93	0x3e65941e	0.22419783
94	0xbc796355	-0.0152214365
95	0xbdabaf5c	-0.083830565
96	0xbe284ebf	-0.16436289
97	0xbd038ccd	-0.0321167
98	0x3c8b9e2d	0.017043198
99	0xbdaa4d47	-0.08315521
100	0x3cb5a7f8	0.02217482
101	0xbd2845a1	-0.04108203
102	0xbcb5bdd5	-0.022185246
103	0x3db2214c	0.08697757
104	0x3d67271d	0.056433786
105	0xbdd6612e	-0.10467754
106	0x3ccc09b8	0.024906978
107	0xbe0c888a	-0.1372396
108	0x3e4ea613	0.2018054
109	0x3c21e7e7	0.00988195
110	0xbe226a5f	-0.1586089
111	0x3db084cd	0.0861908
112	0x3c03fed5	0.008056362
113	0x3ccd57a1	0.025066199
114	0xbe4deb1e	-0.20109221
115	0x3e449441	0.1919718
116	0x3c05150b	0.008122693
117	0xbdfb857a	-0.12281318
118	0x3dffe697	0.124951534
119	0x3d2e15f9	0.042501424

fc2.weight f4 [84, 120]
0	0x3babf7b0	0.0052480325
1	0xbde0b690	-0.10972321
2	0x3d1680bd	0.03674387
3	0x3b3c208d	0.0028705925
4	0xbd1a5bcf	-0.03768521
5	0xbe15bfaa	-0.14623895
6	0xbdd07a40	-0.10179567
7	0x3d148554	0.036259964
8	0xbb6f5da7	-0.0036524327
9	0xbd7f1e10	-0.06228453
10	0x3d333c1b	0.043758493
11	0x3e0c89cd	0.13724442
12	0xbd773363	-0.06035174
13	0xbd7fcc80	-0.062450886
14	0xbb9588d1	-0.004563429
15	0xbd11dd55	-0.03561147
16	0xbd72b84a	-0.059257783
17	0x3d0bb3a8	0.03410688
18	0xbd5e3666	-0.054251097
19	0x3d3ba701	0.045813564
20	0xbdbf26e6	-0.09333591
21	0xbdf790fd	-0.12088201
22	0x3dfba893	0.12288012
23	0x3d18b416	0.03728112
24	0xbe2733e7	-0.16328393
25	0x3dc48cab	0.09597143
26	0xbd4b9229	-0.049699936
27	0x3dc9704d	0.09835873
28	0xbd0fa682	-0.035070904
29	0xbc891a36	-0.016736131
30	0x3d4be41b	0.049778085
31	0xbc9957d4	-0.018718638
32	0xbe050c8a	-0.12993065
33	0x3dcb3c61	0.09923626
34	0x3d20f194	0.039292887
35	0x3d7a9f88	0.061187297
36	0xbd93bc58	-0.07213658
37	0x3ca202f6	0.019776803
38	0xbe0ac386	-0.13551149
39	0xbdfbc5d2	-0.122935906
40	0xbb4e0141	-0.0031433853
41	0x3da6ae8b	0.0813876
42	0x3d8a77fb	0.06761166
43	0xbe05ddc4	-0.13072878
44	0x3d1b1801	0.03786469
45	0xbdf9efec	-0.122039646
46	0xbd34190e	-0.043969207
47	0x3d15e206	0.036592506
48	0xbcff08c4	-0.03113211
49	0x3c362375	0.011116852
50	0xbcd4ddf0	-0.025984734
51	0xbd472fee	-0.048629694
52	0xbbabeef3	-0.005246991
53	0x3de2d1b0	0.11075151
54	0x3d4c11f9	0.049821828
55	0xbd9258e7	-0.07145863
56	0xbd89f143	-0.0673547
57	0x3cd2c27f	0.025727509
58	0xbdfb46d1	-0.122693665
59	0xbdf2f34a	-0.1186281
60	0x3c2dce1d	0.010608223
61	0x3d83ddb8	0.06438774
62	0xbd689e02	-0.056791313
63	0xbc22a955	-0.009928067
64	0xbdce2941	-0.10066462
65	0x3c301cef	0.010749086
66	0xbd11be69	-0.03558198
67	0x3d8629e5	0.065509595
68	0x3d8edf07	0.06976133
69	0x3ce8aaae	0.028401699
70	0x3dc7f462	0.09763409
71	0xbbfc4479	-0.0076985923
72	0xbde7a3d3	-0.11310544
73	0xbcd31ec3	-0.025771504
74	0x3dba6a61	0.091023214
75	0x3d16b62d	0.03679483
76	0xbcc6cb09	-0.024266737
77	0xbcda424c	-0.026642941
78	0x3d165c0e	0.036708884
79	0xbdcde4ee	-0.100534305
80	0x3e425aaf	0.18979906
81	0x3c9861e2	0.018601362
82	0x3cfb626a	0.030686576
83	0x3dac8f56	0.08425777
84	0x3db4bc65	0.08824996
85	0xbcdf79f5	-0.027279833
86	0x3ce9a348	0.028520241
87	0xbd350270	-0.044191778
88	0x3da83e29	0.08214981
89	0x3d8259d0	0.063647866
90	0xbd818b59	-0.063254066
91	0x3d2af297	0.041735258
92	0xbc95eb4c	-0.018300675
93	0x3e28c62f	0.16481851
94	0x3caf45ff	0.021395681
95	0xbd727aa4	-0.05919899
96	0xbdeeb41c	-0.11655447
97	0x3ce5909f	0.028023062
98	0xbd5b67a7	-0.053565647
99	0xbd7242bb	-0.05914567
100	0xbd77410b	-0.060364764
101	0x3db975b9	0.09055657
102	0xbd89c73a	-0.067274526
103	0x3d257c35	0.040401656
104	0xbc9ed729	-0.019389706
105	0xbdb444f6	-0.08802216
106	0xbc60bcc9	-0.013716885
107	0xbe66914e	-0.22516367
108	0xbd22a25c	-0.03970562
109	0xbc512447	-0.012764997
110	0xbde4abda	-0.111655906
111	0x3d23281f	0.039833184
112	0xbdbac3ba	-0.09119363
113	0x3cb8c735	0.022555927
114	0xbe4c138f	-0.19929336
115	0x3d142ddc	0.036176547
116	0xbd9557d9	-0.07292146
117	0xbda6ca62	-0.0814407
118	0x3dddfa05	0.10838703
119	0xbcd4d8f4	-0.025982358
120	0xbdcacdea	-0.09902556
121	0x3db0679f	0.08613514
122	0xbd888e23	-0.066677354
123	0xbd03e3a8	-0.03219953
124	0xbdba4b04	-0.09096339
125	0x3db648f0	0.089006305
126	0x3d9bf32f	0.07614743
127	0xbd4374ff	-0.047718998
128	0x3e117fbb	0.14208882
129	0xbd8f23e6	-0.06989269
130	0xbdb72a9b	-0.08943673
131	0x3d105eb6	0.035246573
132	0xbd71ba21	-0.059015397
133	0x392fcac5	0.00016764838
134	0xbcebb721	-0.028773846
135	0xbd2fbc7c	-0.042904362
136	0xbd9d8505	-0.07691387
137	0xbd8ded64	-0.06930044
138	0xbe17a715	-0.1480983
139	0xbdeb686d	-0.11494527
140	0xbcfe9f4e	-0.031081822
141	0xbd11fb24	-0.035639897
142	0xbd82f9a4	-0.063952714
143	0xbe1c0bf8	-0.1523894
144	0xbce2acf3	-0.02767036
145	0x3d03682e	0.032081775
146	0x3c8ad459	0.016946958
147	0xbcea5654	-0.028605618
148	0xbd820ef2	-0.06350507
149	0xbc048243	-0.008087697
150	0x3d361327	0.04445186
151	0xbdf6ad1f	-0.12044739
152	0xbe1501cc	-0.14551467
153	0xbd995500	-0.074869156
154	0xbdaa9e28	-0.08330947
155	0x3dd9e395	0.10639111
156	0x3d25c9cd	0.040475655
157	0xbd9a11d6	-0.07522933
158	0x3d253ffd	0.040344227
159	0x3b257ef1	0.0025252665
160	0x3d89a336	0.06720583
161	0x3cdfc86f	0.027317254
162	0x3e283b40	0.16428852
163	0x3c953dbd	0.018217916
164	0x3e3ed410	0.18635583
165	0x3bd56d59	0.0065132794
166	0xbdf9b14f	-0.12192022
167	0xbd5b5907	-0.0535517
168	0xbd8410c8	-0.06448513
169	0x3de0f7e3	0.10984781
170	0x3c65332f	0.013989254
171	0x3d78847a	0.060673214
172	0x3dbf5737	0.09342807
173	0xbe0f0e6b	-0.13970344
174	0x3e07acd6	0.13249525
175	0x3c7b026b	0.015320401
176	0xbdb48df6	-0.088161394
177	0xbd4f85b3	-0.050664615
178	0x3e2008e6	0.15628394
179	0xbcbe3f9c	-0.02322369
180	0xbe10c5b7	-0.14137922
181	0xbd6e6a94	-0.05820711
182	0x3dc8d727	0.09806662
183	0x3db4c352	0.08826317
184	0xbe035e1d	-0.1282887
185	0x3d4a498d	0.04938655
186	0xbca9ff39	-0.020751582
187	0xbd65beca	-0.056090154
188	0xbd215fbe	-0.039397947
189	0x3de1d8b2	0.110276595
190	0x3d887c43	0.06664326
191	0xbd7bd26f	-0.061479982
192	0xbd630801	-0.055427555
193	0xbdf0b276	-0.11752789
194	0xbe0893c9	-0.13337626
195	0xbc9c7052	-0.019096527
196	0x3dced38a	0.100989416
197	0x3d9fd739	0.07804722
198	0x3dc83768	0.09776193
199	0xbd91aa5a	-0.0711257
200	0x3c53cfa5	0.012927924
201	0x3d5fd365	0.05464496
202	0x3df167d2	0.1178738
203	0x3dac9723	0.084272645
204	0xbdd19354	-0.10233179
205	0x3d4245df	0.047429916
206	0x3d85d4ff	0.065347664
207	0x3d81890f	0.0632497
208	0x39d543c9	0.0004067703
209	0x3da338f5	0.07969848
210	0xbc8535d4	-0.016261019
211	0x3c97baea	0.018521745
212	0xbcf13156	-0.02944247
213	0xbe06700a	-0.13128677
214	0x3d9f449e	0.077767596
215	0xbd5e98e8	-0.05434504
216	0x3c966e5c	0.01836317
217	0xbc95e33b	-0.018296828
218	0xbdd6b30f	-0.104833715
219	0x3d052c7c	0.032513127
220	0x3d25ffab	0.040527027
221	0xbdfad13c	-0.122469395
222	0x3c21ea92	0.009882586
223	0x3b3599f1	0.0027710164
224	0xbe2924fe	-0.16518018
225	0xbdbbbec3	-0.09167244
226	0xbd4c74f8	-0.049916238
227	0x3e31a713	0.1734889
228	0x3d20aecf	0.03922921
229	0xbdc92a60	-0.098225355
230	0xbc871893	-0.01649121
231	0x3aa8543c	0.0012842487
232	0xbd38e07e	-0.045135967
233	0xbd8cb08a	-0.0686961
234	0x3e0e7cd6	0.13914809
235	0xbe522ccf	-0.20524906
236	0x3c316471	0.01082717
237	0x3dd56184	0.1041899
238	0xbde343a7	-0.11096888
239	0xbbbf8314	-0.005844483
240	0xbd5d794f	-0.054070767
241	0x3db24d30	0.087061286
242	0xbdc2e43e	-0.0951619
243	0x3c2ad39e	0.01042643
244	0x3dcc825d	0.09985802
245	0xbb5ed03d	-0.0033998631
246	0xbcddc14f	-0.027069716
247	0xbba2eda2	-0.0049721757
248	0xbdb7f7e7	-0.089828305
249	0x3bfb6b64	0.007672714
250	0x3dca482c	0.09877047
251	0xbd857891	-0.06517137
252	0x3d0e0899	0.034676168
253	0x3d5eb24d	0.05436926
254	0x3c97a9db	0.01851361
255	0x3e132021	0.14367725

fc2.bias f4 [84]
0	0x3ecf9077	0.40539905
1	0x3e336beb	0.17521636
2	0xbdd0a267	-0.10187226
3	0x3e5de933	0.2167099
4	0x3c95b8f6	0.018276673
5	0x3e8d9503	0.2765275
6	0xbd13023e	-0.03589081
7	0x3d0db79b	0.034598928
8	0x3e014a21	0.12625934
9	0x3d736186	0.059419177
10	0x3e37b89c	0.17941517
11	0x3de52a0a	0.11189659
12	0x3e03a5fe	0.1285629
13	0x3dbec81c	0.093155116
14	0x3df26253	0.1183516
15	0x3ee4fb34	0.44722903
16	0x3e330ed9	0.17486133
17	0x3e46a3df	0.1939845
18	0x3ee2252a	0.4416898
19	0xbda721c5	-0.08160738
20	0x3d51ae14	0.051191404
21	0x3e9d2ed2	0.30699784
22	0x3ea413c3	0.32046327
23	0xbbd26a45	-0.0064213597
24	0x3e5183e1	0.20460464
25	0x3e706d8f	0.23479293
26	0x3efbd123	0.49182996
27	0xbe062063	-0.13098292
28	0xbc52c05c	-0.012863245
29	0x3e8aa239	0.2707689
30	0xbb50b993	-0.0031848892
31	0xbe679513	-0.22615461
32	0xbc306803	-0.010766986
33	0x3ed8d5b9	0.42350557
34	0x3d7e7ec0	0.062132597
35	0x3e32ad44	0.17448908
36	0x3ec7e7f8	0.39044166
37	0x3ccdd27a	0.025124777
38	0x3daaffcc	0.08349571
39	0x3e17c51d	0.14821286
40	0x3ea6bc2e	0.32565445
41	0x3db1010b	0.08642777
42	0x3e8df0c6	0.27722758
43	0x3dfdd253	0.12393632
44	0xbcc85cc2	-0.024458293
45	0x3dfc078e	0.123061284
46	0x3e07fa41	0.13279058
47	0x3c39e163	0.01134524
48	0x3ddf88c2	0.10914756
49	0x3e01776f	0.12643217
50	0x3d7058ed	0.058678556
51	0x3db9aa75	0.09065715
52	0x3d0944b7	0.033512797
53	0xbcab6fe6	-0.02092738
54	0xbdb3c426	-0.08777647
55	0x3dfb9de5	0.12285975
56	0x3ecfb979	0.40571192
57	0x3e8f603b	0.28003106
58	0xbdb128f2	-0.08650388
59	0x3d5d4612	0.054021902
60	0xbd503ea1	-0.050840978
61	0x3edd8884	0.43268216
62	0xbd9079e9	-0.070545025
63	0x3c9d4f9b	0.019202998
64	0x3eb3c1e6	0.3510887
65	0x3ecb06b8	0.39653563
66	0x3d3b99c7	0.04580095
67	0x3cbfab7d	0.023397202
68	0xbdd1a763	-0.102370046
69	0x3df6fcd5	0.12059943
70	0xbd734411	-0.059391085
71	0x3e1a1407	0.15046702
72	0x3d91d642	0.071209446
73	0x3e39261c	0.18080944
74	0xbda2c641	-0.0794797
75	0x3e0cadd1	0.1373818
76	0xbd0c35b7	-0.034230914
77	0x3e35e77d	0.17764087
78	0x3ece895e	0.40339178
79	0x3e439951	0.19101454
80	0x3dd1222c	0.10211596
81	0x3e7c07ff	0.24612425
82	0x3e34c1b3	0.17652015
83	0xbd8a697e	-0.06758402

fc3.weight f4 [10, 84]
0	0xbe76cb8d	-0.24101086
1	0xbe2fa845	-0.17154033
2	0x3dda34e3	0.106546186
3	0xbca477a3	-0.020076578
4	0xbe18f68d	-0.14937802
5	0x3dce0c8e	0.10060988
6	0xbe27fd51	-0.16405226
7	0x3e806d6e	0.25083488
8	0x3e3ddf8f	0.18542312
9	0x3e149054	0.14508182
10	0xbded4f6f	-0.115874164
11	0x3defbda8	0.11706096
12	0x3e1da517	0.15395008
13	0x3c5ef194	0.013607401
14	0x3c17d629	0.009267368
15	0x3b9651ad	0.004587373
16	0xbe15a1b8	-0.14612472
17	0xbe065c3d	-0.13121124
18	0xbd2a9026	-0.041641377
19	0x3e5b5727	0.21419965
20	0xbd890266	-0.066899106
21	0xbe50369a	-0.20333329
22	0xbdc2763d	-0.094952084
23	0xbd954787	-0.072890334
24	0x3e48faba	0.19626895
25	0x3e37d063	0.17950587
26	0xbe3721cd	-0.17883988
27	0x3e13ee32	0.14446333
28	0x3d4b45d4	0.04962714
29	0x3d31d8db	0.0434197
30	0x3e8edd22	0.27903086
31	0x3e3e03d0	0.18556142
32	0x3e707741	0.23482992
33	0x3e858b95	0.26083055
34	0xbd6f2335	-0.058383185
35	0x3d7876f8	0.060660332
36	0x3e0a439c	0.13502353
37	0x3cb185e1	0.021670284
38	0x3e8ec15e	0.27881902
39	0xbe23523f	-0.15949343
40	0xbe309d7f	-0.1724758
41	0x3c35d791	0.011098758
42	0xbd888e38	-0.06667751
43	0xbe00b75d	-0.12569948
44	0xbcf945e0	-0.030428827
45	0x3e5314c9	0.20613398
46	0x3d33a959	0.043862674
47	0xbd8bf261	-0.068333395
48	0xbd6e074f	-0.05811244
49	0x3c7131ec	0.014721375
50	0x3d83b99a	0.06431885
51	0x3d7bc98e	0.061471514
52	0xbdad9fe7	-0.084777646
53	0x3e082301	0.13294603
54	0xbddf9046	-0.1091619
55	0x3e0eaf16	0.13933977
56	0x3e568285	0.20948227
57	0xbe96a089	-0.29419354
58	0x3aa93b0e	0.0012911276
59	0xbd5748b3	-0.052559566
60	0x3dc8ce1a	0.09804936
61	0xbed1c76d	-0.40972462
62	0x3cf1e364	0.029527374
63	0x3e9601c2	0.29298216
64	0x3e09c9ca	0.13455883
65	0xbe885bbe	-0.26632494
66	0x3d169996	0.036767565
67	0x3dbf2453	0.093331
68	0x3d76726a	0.060167708
69	0x3e17533c	0.14777845
70	0x3dba8bc8	0.091086924
71	0xbde6b5bd	-0.112651326
72	0xbe1b4c7a	-0.15165892
73	0x3e065ef2	0.13122156
74	0x3d496ee8	0.049178034
75	0x3d833b9a	0.064078525
76	0x3e5ec6fd	0.21755596
77	0xbd9853ba	-0.074378446
78	0x3d407ada	0.04699216
79	0xbe384497	-0.17994915
80	0xbd69a5be	-0.05704283
81	0xbe17a78c	-0.14810008
82	0x3d6cec2c	0.05784242
83	0xbe0c8e95	-0.13726266
84	0x3d267971	0.04064316
85	0xbe336b86	-0.17521486
86	0x3e0137bb	0.12618916
87	0xbeb77974	-0.3583485
88	0xbddad673	-0.10685434
89	0x3e297373	0.16547947
90	0x3e3e7337	0.18598638
91	0xbe17a5ff	-0.14809416
92	0xbce14b63	-0.027501768
93	0x3d8efce3	0.06981828
94	0xbd1059f5	-0.03524204
95	0x3db778b6	0.08958571
96	0xbd43b848	-0.047783166
97	0xbd42c5bb	-0.04755185
98	0x3e0d708a	0.13812461
99	0xbe5bcc73	-0.2146471
100	0xbd80ec03	-0.06295016
101	0xbe77fb0b	-0.24216859
102	0xbe9eb27f	-0.30995557
103	0xbdc00b5d	-0.093771674
104	0xbe666315	-0.22498734
105	0xbe8c2969	-0.27375343
106	0x3e25e1c3	0.16199403
107	0x3bfaa6be	0.0076492717
108	0x3e9576cd	0.291922
109	0xbdbea930	-0.09309614
110	0xbdcfb152	-0.10141243
111	0x3dd54025	0.10412625
112	0x3df7eff5	0.12106315
113	0xbdb46231	-0.08807791
114	0xbe1ac76a	-0.15115133
115	0x3e480bfa	0.19535819
116	0x3e3aced9	0.18242969
117	0xbe1a15ca	-0.15047374
118	0xbdd82db2	-0.10555591
119	0xbe1937bc	-0.14962667
120	0xbe2bc255	-0.1677335
121	0xbe59fd11	-0.21287943
122	0xbdf3bb41	-0.1190095
123	0xbd946851	-0.07246459
124	0x3e2a9466	0.16658172
125	0x3e961585	0.29313293
126	0x3e60b3b6	0.21943554
127	0xbd3ca421	-0.046054963
128	0x3c9ac6c0	0.0188936
129	0x3e7f20f9	0.24914922
130	0xbe5a5884	-0.21322829
131	0x3e7a4a2b	0.24442355
132	0x3e00c532	0.12575224
133	0xbd9ae4eb	-0.07563194
134	0xbd6bb9bd	-0.05755018
135	0xbcf123a3	-0.029435938
136	0x3edca3a9	0.43093613
137	0x3c91fffb	0.017822256
138	0x3cf41145	0.029793391
139	0x3da73a27	0.081653886
140	0xbddf50ec	-0.109041065
141	0x3e0a933d	0.1353273
142	0x3d9d0b50	0.07668173
143	0xbda9a4b4	-0.08283368
144	0x3c28b5b8	0.010297231
145	0xbde348af	-0.11097848
146	0xbe09a1eb	-0.13440673
147	0x3e87c386	0.2651636
148	0x3e900b18	0.28133464
149	0x3d29f912	0.041497298
150	0x3c835b6c	0.016034804
151	0x3d9ea152	0.07745613
152	0x3e2abe40	0.16674137
153	0x3e86b67a	0.26311094
154	0x3d0c47fb	0.034248333
155	0xbdac3c65	-0.08409957
156	0xbde1b5a6	-0.11020975
157	0xbe16a1c8	-0.14710152
158	0xbb9dcaf7	-0.004815455
159	0xbda88f2c	-0.08230433
160	0x3e5d8997	0.21634518
161	0xbdea14be	-0.114297375
162	0xbe96144b	-0.29312357
163	0xbe2527d7	-0.16128479
164	0xbad4c8e6	-0.0016234189
165	0xbe203cd0	-0.15648198
166	0x3d7bb796	0.061454378
167	0x3db3b433	0.08774605
168	0x3c8575c8	0.016291514
169	0x3dacabf7	0.08431237
170	0x3e085b82	0.13316157
171	0x3e91cbc5	0.28475776
172	0xbe11d826	-0.1424261
173	0xbd9e4046	-0.07727103
174	0x3c2b12a6	0.010441458
175	0x3dd6e813	0.104934834
176	0x3e1f4b55	0.1555608
177	0xbd8b1953	-0.067919396
178	0x3e559b82	0.20860103
179	0xbd0d146e	-0.03444331
180	0xbe14e679	-0.14541043
181	0xbccc6852	-0.024952088
182	0xbe350ec3	-0.17681412
183	0xbe1e8bb9	-0.15482987
184	0x3d84076c	0.06446728
185	0x3e725ae9	0.23667492
186	0xbc4fd707	-0.012685544
187	0x3ceb7c46	0.028745782
188	0x3e96249a	0.293248
189	0x3e3ec95c	0.186315
190	0x3e6a4e44	0.22881418
191	0xbd161777	-0.03664347
192	0xbdbb5792	-0.09147562
193	0x3df20cc2	0.118188396
194	0x3e671fd1	0.22570731
195	0x3d641b0d	0.05568986
196	0xbdb20deb	-0.08694061
197	0x3e8a6454	0.2702967
198	0xbcdca3ca	-0.02693357
199	0xbe1d4052	-0.15356568
200	0xbe022163	-0.12708049
201	0x3e8d9ae9	0.2765725
202	0x3e5f3fd7	0.21801697
203	0x3d91fac5	0.071279086
204	0xbd4fbe73	-0.050718736
205	0x3de5fb3f	0.11229562
206	0x3e22b236	0.15888295
207	0xbd000eec	-0.03126423
208	0x3c805149	0.01566376
209	0xbe122e9f	-0.14275597
210	0xbdfe9205	-0.12430195
211	0xbd8f1cc1	-0.06987906
212	0x3d7093d9	0.05873475
213	0xbe26442e	-0.16236946
214	0x3e910fbf	0.28332326
215	0xbcd5f9f2	-0.02612016
216	0xbd73087a	-0.059334256
217	0x3e9082d9	0.2822483
218	0xbde39821	-0.11113001
219	0xbe121b7f	-0.14268301
220	0x3b343693	0.002749835
221	0xbd728547	-0.059209134
222	0xbcd5c408	-0.026094452
223	0x3e4933db	0.19648688
224	0xbd6e3a09	-0.058160815
225	0x3ce3cfae	0.02780899
226	0x3d08f119	0.033433054
227	0xbce1bf99	-0.027557181
228	0xbd0cf7db	-0.03441606
229	0x3da216d6	0.07914512
230	0x3cbe26d0	0.023211867
231	0xbdf17713	-0.1179029
232	0xbe79d302	-0.243969
233	0xbc5d4500	-0.01350522
234	0xbcb6878b	-0.022281429
235	0xbe145867	-0.14486848
236	0xbc21f907	-0.009886033
237	0xbe3a91cf	-0.18219684
238	0xbbc410e2	-0.005983458
239	0x3e42063e	0.18947694
240	0xbd0e6db9	-0.03477261
241	0xbc8f16dd	-0.017466957
242	0xbd5e01ac	-0.054200813
243	0x3c812152	0.015762959
244	0x3e48a5a8	0.19594443
245	0xbdfe28f2	-0.124101534
246	0x3ea695cc	0.3253616
247	0x3d78f1ff	0.06077766
248	0xbd6b7563	-0.057484996
249	0x3e9a075e	0.30083746
250	0xbcbec987	-0.023289455
251	0xbbed26fc	-0.0072373133
252	0x3e3a6e1b	0.18206064
253	0x3d639827	0.055565026
254	0xbdcbc491	-0.099496014
255	0x3e28e0df	0.16492032

fc3.bias f4 [10]
0	0xbe3ed1f1	-0.18634774
1	0xbf27a558	-0.6548667
2	0xbe1eba7d	-0.15500827
3	0x3f12ff1a	0.57420504
4	0x3f2cfc5a	0.6757256
5	0xbe310158	-0.17285669
6	0x3e28a427	0.16468869
7	0xbe995626	-0.2994854
8	0x3eb08aa7	0.34480783
9	0xbe4adbb1	-0.19810368
