model/cifar10_pytorch.pth (torch, 251688 bytes, 10 tensors)

conv1.weight f4 [6, 3, 5, 5]
-0.21661457 -0.07292903 -0.13159442 0.6371392 0.07367437 0.107879065 -0.062543 -1.1393483
0.1425057 0.5972768 0.23439282 0.58919877 -0.79962695 -0.45979393 0.29517785 -0.1139116
0.76137567 0.024212696 -0.41529512 -0.15696579 -0.17878553 0.06986295 -0.00054312195 0.04395052
-0.13811676 -0.10480773 -0.05564749 -0.42405456 0.4587119 0.07817292 0.23620595 0.04451241
-1.1492177 0.2170293 0.56976956 0.25406906 0.77895564 -0.94744563 -0.53901 0.5445645
-0.16681772 0.5777007 -0.10266101 -0.27434236 -0.06230459 -0.20059937 0.10634669 -0.006412873
0.02664544 0.03970079 -0.026705332 -0.061956257 -0.24900825 0.34289548 -0.27936098 0.23438112
0.18078363 -0.981355 0.23723137 0.22855471 0.16099858 0.780857 -0.614357 -0.4357637
0.12410242 -0.22052015 0.7315327 0.15136138 -0.38024944 -0.16174474 -0.0710002 0.14706391
0.1362155 0.18920323 -0.096948735 0.08796845 0.050138153 0.031200048 0.011136592 0.1618258
-0.119716115 -0.23084852 -0.08007995 -0.14217862 0.118103646 -0.36256367 -0.28366312 -0.33722168
-0.24056317 0.006432858 -0.26242867 -0.40350118 -0.33450735 -0.20050935 0.06344379 0.09599747
-0.098407134 -0.011927869 0.13036177 0.24530558 -0.030416263 -0.026133168 -0.08615195 -0.036695298
-0.06626037 -0.050624046 0.052853227 -0.090981424 -0.06591252 -0.06885824 0.047184683 -0.005207213
-0.0634607 -0.008448091 -0.16098295 -0.035348993 0.03457286 0.03238345 -0.067490906 -0.059772246
-0.13184789 0.047336247 0.12837136 0.06527179 -0.087613866 -0.0044416087 0.031866446 0.15260205
0.06589507 0.013205681 0.14307678 0.281105 0.3725353 0.3401253 -0.0035651545 0.33297893
0.34224707 0.44584537 0.28308982 0.027457451 0.25470048 0.3285782 0.36509523 0.26814252
-0.044157192 0.014165284 0.064603865 0.083781585 0.09791843 -0.32564503 0.4243821 0.6854136
0.8870962 0.5747229 0.08664954 0.5630029 0.44171864 0.15268947 -0.21959677 -0.00915029
0.23995158 -0.1287426 -0.32628068 -0.22256853 0.017192032 -0.053929947 -0.51839244 -0.26462978
-0.13743275 -0.017879324 -0.30710563 -0.4022662 -0.12918812 -0.23250107 -0.13536333 -0.19868737
-0.16475353 -0.15217824 -0.46756032 -0.5376046 0.16395754 -0.14498751 -0.6211076 -0.6877122
-0.33020756 0.30246353 -0.44205457 -0.4581789 -0.30870357 0.16783327 -0.017804403 -0.49051967
-0.3562008 -0.0029755868 0.26684043 0.09509617 -0.16233851 0.08844945 0.11257321 0.24038583
-0.049744934 -0.042218577 -0.11283504 -0.31588995 -0.27000806 0.2079271 0.028678264 -0.20943373
-0.31800655 -0.036164246 0.3547009 -0.124081746 -0.2163365 -0.026098398 0.3792124 0.1386792
-0.114397615 0.10491144 0.12854074 0.22962502 0.36104912 0.072294354 0.27083656 0.31998718
0.32582062 0.11578519 -0.08521653 0.11731207 0.11949406 0.24504156 -0.12900586 -0.079357
-0.13897668 -0.20099893 -0.20013718 -0.07331993 -0.027487688 -0.03605291 0.15051045 -0.06296255
-0.2703994 -0.28368843 -0.11452506 -0.19928104 -0.021346642 -0.39391872 -0.48663417 -0.6441393
-0.33027503 -0.27959532 -0.026773658 -0.074056566 -0.16225332 -0.0338728 -0.030646468 -0.21361412
00000000: 36d0 5dbe d15b 95bd b0c0 06be 8e1b 233f
00000010: 97e2 963d b3ef dc3d 8b16 80bd 2ad6 91bf
00000020: 04ed 113e 22e7 183f ac04 703e bbd5 163f
00000030: 5ab4 4cbf 1c6a ebbe 8d21 973e 7c4a e9bd
00000040: 84e9 423f b459 c63c 90a1 d4be a4bb 20be
00000050: 8e13 37be 4e14 8f3d 4c60 0eba 7605 343d
00000060: 7b6e 0dbe 6fa5 d6bd 9fee 63bd ae1d d9be
00000070: 49dc ea3e 2019 a03d f9df 713e a552 363d
00000080: 9119 93bf ee3c 5e3e 6bdc 113f 5715 823e
00000090: a369 473f cc8b 72bf 8ffc 09bf 9468 0b3f
000000a0: 44d2 2abe 31e4 133f f03f d2bd 9a76 8cbe
000000b0: 1933 7fbd ec69 4dbe 4bcc d93d 1423 d2bb
000000c0: 8a47 da3c 4c9d 223d 24c5 dabc d8c5 7dbd
000000d0: 05fc 7ebe ff8f af3e 6708 8fbe 9b01 703e
000000e0: 581f 393e 153a 7bbf c8ec 723e 3f0a 6a3e
000000f0: d0dc 243e 3fe6 473f 8046 1dbf 6b1c dfbe
00000100: 6929 fe3d 09d0 61be ba45 3b3f 7afe 1a3e
00000110: 0eb0 c2be 6aa0 25be 8e68 91bd ec97 163e
00000120: 137c 0b3e 7ebe 413e 0f8d c6bd cd28 b43d
00000130: aa5d 4d3d 3e97 ff3c 4176 363c aab5 253e
00000140: b92d f5bd 8e63 6cbe f500 a4bd 4697 11be
00000150: 53e0 f13d f2a1 b9be 4b3c 91be 52a8 acbe
00000160: 3156 76be b9ca d23b 0d5d 86be b597 cebe
00000170: 8c44 abbe 5352 4dbe d1ee 813d 529a c43d
00000180: ae89 c9bd 1c6d 43bc 8e7d 053e 6331 7b3e
00000190: 872b f9bc 3a15 d6bc 6f70 b0bd cf4d 16bd
000001a0: 84b3 87bd 295b 4fbd a07c 583d 7854 babd
000001b0: 25fd 86bd 8d05 8dbd ba44 413d 45a1 aabb
000001c0: aff7 81bd dd69 0abc b7d8 24be 1bca 10bd
000001d0: 459c 0d3d 82a4 043d ac38 8abd bed3 74bd
000001e0: 2203 07be a7e3 413d c873 033e 37ad 853d
000001f0: e66e b3bd ea8a 91bb 6486 023d b643 1c3e
00000200: fff3 863d a45c 583c b882 123e ffec 8f3e
00000210: f2bc be3e e724 ae3e 5ea5 69bb 377c aa3e
00000220: 023b af3e d845 e43e 26f1 903e 73ee e03c
00000230: 1a68 823e 673b a83e c3ed ba3e fa49 893e
00000240: 2cde 34bd 8215 683c 084f 843d ae95 ab3d
00000250: 7589 c83d f2ba a6be 9c48 d93e 4477 2f3f
00000260: bd18 633f 0a21 133f 5075 b13d f520 103f
00000270: f228 e23e a15a 1c3e fadd 60be 19eb 15bc
00000280: deb5 753e 1ad5 03be 430e a7be 01e9 63be
00000290: 4ed6 8c3c a6e5 5cbd 5eb5 04bf 8e7d 87be
000002a0: 2cbb 0cbe a977 92bc f33c 9dbe d6f5 cdbe
000002b0: e449 04be c314 6ebe af9c 0abe b474 4bbe
000002c0: 26b5 28be 9dd4 1bbe 1164 efbe 74a0 09bf
000002d0: 7ce4 273e 9b77 14be e800 1fbf e80d 30bf
000002e0: f710 a9be 80dc 9a3e fa54 e2be 6d96 eabe
000002f0: 650e 9ebe 7cdc 2b3e 8ada 91bc 6525 fbbe
00000300: f45f b6be 1002 43bb 4f9f 883e c8c1 c23d
00000310: 113c 26be fc24 b53d c88c e63d b427 763e
00000320: 58c1 4bbd 63ed 2cbd 0f16 e7bd 54bc a1be
00000330: 7f3e 8abe d7ea 543e aeee ea3c cc75 56be
00000340: c1d1 a2be f620 14bd 5b9b b53e 921e febd
00000350: 5187 5dbe 4fcc d5bc 2128 c23e ec01 0e3e
00000360: 4c49 eabd cfdb d63d 2fa0 033e d222 6b3e
00000370: 6edb b83e 100f 943d 17ab 8a3e 5cd5 a33e
00000380: f6d1 a63e c920 ed3d 0186 aebd 5041 f03d
00000390: 4db9 f43d 2dec 7a3e 1d1a 04be ec85 a2bd
000003a0: e74f 0ebe aad2 4dbe c3f0 4cbe c228 96bd
000003b0: dc2d e1bc 37ac 13bd 691f 1a3e 82f2 80bd
000003c0: ca71 8abe 9c3f 91be 1d8c eabd 5410 4cbe
000003d0: 27df aebc b7af c9be 1d28 f9be 50e6 24bf
000003e0: cf19 a9be 1e27 8fbe 6e54 dbbc f8aa 97bd
000003f0: bc25 26be 35be 0abd 4d0e fbbc a9bd 5abe

conv1.bias f4 [6]
-0.19178408 0.5092639 -0.3790111 -0.06858354 -0.24779484 -0.49318123
00000000: 0c63 44be 1e5f 023f be0d c2be 8775 8cbd
00000010: eebd 7dbe 4082 fcbe

conv2.weight f4 [16, 6, 5, 5]
-0.19898255 -0.2801844 -0.27420083 -0.22646748 -0.08127578 -0.20805053 -0.21443418 -0.2527852
-0.23044854 -0.11226858 -0.25692856 -0.355097 -0.19543499 -0.10746024 -0.03212715 -0.14743495
-0.17471303 -0.1593568 -0.09127366 0.11339128 -0.07356661 -0.2411728 -0.1254657 -0.026459426
0.072683066 -0.009894664 -0.04593562 -0.0015679441 0.062205914 0.19347113 -0.07275551 -0.028943911
-0.05768259 0.013692687 0.071374565 -0.020209359 -0.096563414 -0.010358609 -0.028900461 0.035318296
0.0073404866 0.07556038 -0.012584728 -0.026669431 -0.021493258 0.13127409 0.09212105 0.06806287
0.049930446 0.032876845 -0.049683355 -0.16377312 -0.059569754 -0.1360126 -0.057872236 -0.07042175
-0.111579224 -0.017765315 -0.12949094 -0.002384108 0.026999295 -0.12043049 -0.027955675 -0.11822488
0.139088 0.032674473 -0.03552908 -0.004795446 -0.05742593 0.069943726 -0.07527008 -0.17610854
0.029709829 0.059722386 0.10686373 0.055232882 -0.042257674 -0.04120064 -0.021956712 0.06872559
-0.025454892 -0.13117471 -0.034419034 -0.1344388 -0.04379059 -0.015463427 -0.0047255945 -0.052033123
-0.008455275 0.044699047 -0.09868769 -0.037706822 -0.0133928405 -0.19803497 -0.031173883 0.056500696
-0.05341273 -0.08923993 0.057036474 0.043079052 -0.21972096 -0.121321075 -0.17353722 -0.068878494
-0.044646855 -0.27668855 -0.21550778 -0.21612231 -0.01801474 -0.032395326 -0.00022669128 -0.1605248
-0.19882968 -0.13595334 0.04635391 0.08166235 -0.0970723 -0.08906327 -0.06669946 0.20511071
0.049773898 0.0236092 0.09587232 0.067244716 0.25905257 -0.1137623 -0.16375415 -0.12136161
-0.039617788 0.00060528435 -0.13875645 -0.16818194 -0.13188897 -0.14647514 -0.1131239 0.04459277
0.091868505 0.04571246 -0.02960731 0.1934386 0.22607967 0.30919948 0.19683258 0.07684845
0.25063238 0.14279895 0.18493706 0.23451672 0.18061866 0.3734104 0.062498037 0.060719572
0.16140881 0.29734287 0.2791129 0.047563806 0.060696587 0.17331393 0.14746445 -0.013166669
0.06604778 0.12648314 0.28979927 0.013758415 -0.2799861 -0.008174555 0.071891166 0.06960743
-0.08092621 -0.52056265 -0.4204049 -0.235038 -0.55400825 -0.5693978 -0.67292446 0.14711806
0.0352083 0.07114334 -0.093588494 0.026495691 -0.024007648 -0.031183627 -0.10893217 -0.060566846
-0.027398594 -0.08970866 -0.17478532 -0.09857393 -0.03639834 -0.075088605 -0.029867018 -0.14736842
0.018769355 0.083161406 0.062647775 0.106415585 0.12086978 0.11581114 0.23666225 0.19709125
0.09767983 0.012451988 0.14574309 0.13241455 0.03052707 -0.0067161093 -0.11849513 0.029434884
0.14139552 -0.107195355 0.038348656 0.06076049 0.04782179 0.15913782 -0.12221372 0.009335561
-0.007863547 -0.0823186 0.044702526 -0.2452049 -0.24251316 -0.17732851 -0.20332424 -0.2680022
-0.37077636 0.0049399915 -0.030339245 -0.039173942 0.088403426 0.07113706 0.21593931 0.12326673
-0.029300675 -0.023783892 -0.04929821 0.061572444 0.053563 0.001720234 -0.081971474 -0.24300627
0.01614664 0.06362377 -0.066881634 -0.18798463 -0.2538152 -0.26003593 -0.19563273 -0.089605615
-0.23067519 -0.3546239 0.23452805 0.059710253 0.04323263 -0.14344929 0.27698824 0.14121366
00000000: 15c2 4bbe 5474 8fbe 0d64 8cbe 17e7 67be
00000010: eb73 a6bd 330b 55be a294 5bbe 106d 81be
00000020: b4fa 6bbe 12ed e5bd 248c 83be 46cf b5be
00000030: 1c20 48be 1d14 dcbd c297 03bd 30f9 16be
00000040: f9e7 32be 6e2e 23be afed babd b039 e83d
00000050: 17aa 96bd 01f6 76be 157a 00be 70c1 d8bc
00000060: dcda 943d 3b1d 22bc fd26 3cbd 7983 cdba
00000070: a1cb 7e3d 4c1d 463e d700 95bd c81b edbc
00000080: 9444 6cbd 4b57 603c d42c 923d 198e a5bc
00000090: 0ac3 c5bd 28b7 29bc a9c0 ecbc eba9 103d
000000a0: 7788 f03b 67bf 9a3d 2d30 4ebc da79 dabc
000000b0: a112 b0bc b76c 063e f6a9 bc3d 8c64 8b3d
000000c0: de83 4c3d dfa9 063d c680 4bbd 24b4 27be
000000d0: 6aff 73bd e346 0bbe 700b 6dbd 4739 90bd
000000e0: a683 e4bd 9188 91bc 4699 04be b23e 1cbb
000000f0: a02d dd3c 43a4 f6bd 4d03 e5bc e31f f2bd
00000100: 166d 0e3e abd5 053d f186 11bd 1e23 9dbb
00000110: 7437 6bbd a83e 8f3d 3327 9abd cc55 34be
00000120: 0762 f33c 769f 743d 5fdb da3d e03b 623d
00000130: 6216 2dbd 01c2 28bd 90de b3bc 01c0 8c3d
00000140: c786 d0bc aa52 06be f9fa 0cbd 53aa 09be
00000150: c35d 33bd 505a 7dbc 29d9 9abb af20 55bd
00000160: fe87 0abc 5916 373d c61c cabd 7872 1abd
00000170: a56d 5bbc aec9 4abe 5f60 ffbc 466d 673d
00000180: 4fc7 5abd 6dc3 b6bd 149f 693d a973 303d
00000190: 88fe 60be 2f77 f8bd beb3 31be 2b10 8dbd
000001a0: 9fdf 36bd 1faa 8dbe 12ae 5cbe 2b4f 5dbe
000001b0: a693 93bc f6b0 04bd fab3 6db9 9d60 24be
000001c0: 029a 4bbe 5a37 0bbe 99dd 3d3d 973e a73d
000001d0: d8cd c6bd ce66 b6bd ba99 88bd 8b08 523e
000001e0: b7df 4b3d 1568 c13c b558 c43d 99b7 893d
000001f0: 8aa2 843e 35fc e8bd 2baf 27be 708c f8bd
00000200: 4346 22bd f2ab 1e3a 2c16 0ebe e337 2cbe
00000210: e70d 07be 94fd 15be 81ad e7bd e9a6 363d
00000220: 8e25 bc3d fd3c 3b3d 088b f2bc c514 463e
00000230: 6e81 673e 654f 9e3e 7b8e 493e b862 9d3d
00000240: e352 803e e339 123e 2460 3d3e 2725 703e
00000250: 19f4 383e a62f bf3e f1fd 7f3d 16b5 783d
00000260: 5a48 253e 533d 983e e3e7 8e3e 44d2 423d
00000270: fc9c 783d 3579 313e ec00 173e 03b9 57bc
00000280: 0f44 873d cc84 013e 9260 943e fa6a 613c
00000290: 575a 8fbe 92ee 05bc ad3b 933d 578e 8e3d
000002a0: a4bc a5bd 9843 05bf 503f d7be cdad 70be
000002b0: 7cd3 0dbf 0ec4 11bf c744 2cbf 1ea6 163e
000002c0: 9436 103d 99b3 913d 53ab bfbd 7e0d d93c
000002d0: b0ab c4bc ce74 ffbc d417 dfbd f114 78bd
000002e0: 0473 e0bc 2db9 b7bd ecfa 32be 21e1 c9bd
000002f0: 6d16 15bd 0ec8 99bd adab f4bc bfe7 16be
00000300: 31c2 993c 8750 aa3d 7a4d 803d 6af0 d93d
00000310: 938a f73d 642e ed3d 9757 723e 4ad2 493e
00000320: 5d0c c83d 6c03 4c3c ad3d 153e ae97 073e
00000330: e813 fa3c cf12 dcbb 93ad f2bd 6d21 f13c
00000340: fdc9 103e 3d89 dbbd 7b13 1d3d fedf 783d
00000350: c8e0 433d 06f5 223e 304b fabd 2ef4 183c
00000360: 1bd6 00bc a796 a8bd ff19 373d fe16 7bbe
00000370: 5f55 78be 9b95 35be 3b34 50be 9637 89be
00000380: 66d6 bdbe a7df a13b 028a f8bc db74 20bd
00000390: db0c b53d 4fb0 913d 321f 5d3e 4473 fc3d
000003a0: f807 f0bc 70d6 c2bc ebec 49bd 6333 7c3d
000003b0: e064 5b3d 7a79 e13a a9e0 a7bd a3d6 78be
000003c0: f545 843c 2e4d 823d 3df9 88bd 0b7f 40be
000003d0: 11f4 81be 6e23 85be f253 48be 2683 b7bd
000003e0: 1e36 6cbe 4491 b5be 1f28 703e bd92 743d
000003f0: b314 313d 5fe4 12be 67d1 8d3e 509a 103e

conv2.bias f4 [16]
0.5821909 -0.6348131 0.9132805 -0.7743918 -0.24853806 1.0286434 -0.0058837985 0.15383387
0.64735645 1.1679977 -1.1997817 -0.33399063 -0.6365936 1.1082522 -0.07226322 0.7290056
00000000: 760a 153f 1c83 22bf c0cc 693f 8a3e 46bf
00000010: c380 7ebe 96aa 833f e1cc c0bb a086 1d3e
00000020: 27b9 253f f380 953f 7292 99bf d200 abbe
00000030: ccf7 22bf 35db 8d3f bdfe 93bd 1ca0 3a3f

fc1.weight f4 [120, 400]
0.06043603 0.029109977 -0.0028657904 0.08938431 0.008468505 0.1076018 0.05943105 0.045234434
-0.02388185 -0.05453245 0.08970044 -0.044100307 0.03624307 0.0013587694 -0.0005171369 0.13051139
-0.012073638 -0.008744329 0.00963132 0.08514824 0.12674822 0.0756139 -0.061289452 -0.03150391
0.08508904 -0.032954723 0.024420263 -0.03900478 0.09592355 0.0054541547 -0.014658861 -0.036045846
0.025189582 0.14484632 0.13044311 -0.065047815 -0.09233213 0.023274643 0.09272474 0.0727571
-0.14664333 -0.089641154 -0.006819245 0.031895638 -0.016452953 -0.10095374 -0.11802487 -0.04662339
-0.098201446 -0.06464495 0.00091028406 0.110002205 -0.0077158893 -0.022825869 -0.017981779 0.0026495128
0.08387777 -0.08742136 -0.12219897 0.03754788 -0.025345925 -0.0057768263 0.052980952 -0.060994867
0.046796814 0.073758796 0.004262784 0.009776234 0.05256246 0.014018874 0.033264432 -0.07650991
-0.0133814495 -0.07043337 0.0053513064 -0.115939125 0.031946477 -0.07042955 -0.017070983 -0.06612566
-0.16423403 -0.10586127 -0.04515487 -0.100425415 -0.059863314 -0.28221074 -0.05813167 -0.12646477
-0.14528292 -0.05747788 -0.12881058 -0.087451 -0.15119995 -0.19278833 -0.1162835 -0.102113634
-0.069027655 0.04326152 -0.03478554 0.04551845 -0.12524877 0.000931251 0.07307921 -0.069177195
-0.026631951 -0.09329455 0.008356758 -0.0449002 -0.038225144 0.027127244 -0.063533336 -0.02142306
-0.00018574031 0.067179084 0.033052355 -0.05133469 -0.07365113 -0.053035505 0.005002436 0.040778622
0.010861574 0.05616451 0.04445349 -0.08272658 0.04485456 0.037556365 0.003313402 0.13647303
0.13947742 0.024133092 -0.046748742 0.01394262 0.071210474 0.0020383035 -0.011058023 -0.03213565
0.07321936 0.030508403 0.0017267104 0.07605634 -0.020507222 -0.053107284 0.015975777 -0.013080281
0.06990183 -0.015442614 0.0012816463 -0.033754744 0.021671316 0.13472153 -0.09611401 -0.036547747
0.035232194 0.000458695 -0.0043958765 0.013189059 0.12589744 0.047773924 -0.022234127 -0.078308724
-0.0020467138 0.021278692 0.0947916 0.009787185 0.0046069985 -0.035298735 0.027463127 0.10509258
-0.014296965 0.0028667834 -0.09348077 0.062356576 0.1389531 0.07543257 0.06005317 -0.025769973
-0.042565547 0.01985354 -0.13396186 0.01984165 -0.009747304 0.049679324 0.0898995 -0.00536088
0.10465317 0.0417643 0.08332325 -0.03153615 -0.0478433 0.09587929 -0.06492651 -0.04350348
-0.084692225 -0.030531755 0.09367129 -0.025392933 0.038924422 -0.022057706 0.05976607 0.11461094
-0.039481156 -0.021804433 -0.0018262842 -0.0444611 -0.029744117 -0.013945708 -0.0012250503 -0.037059937
-0.07390266 0.08427036 0.04153877 0.029709723 0.012267119 0.033035062 0.0037167622 0.077589065
0.008661328 0.007806562 -0.045006786 0.03432279 0.16344027 -0.049397886 -0.1180923 -0.08233118
-0.017277544 -0.0018092348 0.047650587 0.028968178 0.038290717 -0.034711853 0.011542458 0.12736584
0.06144669 0.05607161 0.05720183 -0.07293033 0.062005036 0.0073008095 0.053047135 0.019972518
-0.0732184 0.02265385 0.021224873 -0.07400486 0.0010497762 -0.056436084 0.06584576 0.07089136
-0.0367226 0.049257495 0.014311017 -0.03251381 0.004628439 0.07540908 -0.0017939097 -0.087035134
00000000: c58b 773d 0c78 ee3c fccf 3bbb 1f0f b73d
00000010: 7cbf 0a3c 555e dc3d f96d 733d be47 393d
00000020: dfa3 c3bc 6b5d 5fbd ddb4 b73d 86a2 34bd
00000030: 9d73 143d bc18 b23a 7890 07ba c7a4 053e
00000040: 82d0 45bc 6044 0fbc afcc 1d3c 3362 ae3d
00000050: 49ca 013e 76db 9a3d a60a 7bbd 3e0a 01bd
00000060: 2a43 ae3d 88fb 06bd 010d c83c 7ac3 1fbd
00000070: 9173 c43d c4b8 b23b b82b 70bc cfa4 13bd
00000080: 625a ce3c 9852 143e e192 053e ca37 85bd
00000090: a118 bdbd 77aa be3c 78e6 bd3d ad01 953d
000000a0: ab29 16be c895 b7bd f973 dfbb 00a5 023d
000000b0: 58c8 86bc d6c0 cebd 06b7 f1bd 2bf8 3ebd
000000c0: d71d c9bd 9264 84bd 21a0 6e3a d648 e13d
000000d0: 92d5 fcbb 51fd babc 864e 93bc 73a3 2d3b
000000e0: 1cc8 ab3d f809 b3bd 7443 fabd cecb 193d
000000f0: 42a2 cfbc 884b bdbb 8e02 593d c1d5 79bd
00000100: 04ae 3f3d da0e 973d d3ae 8b3b 7f2c 203c
00000110: bc4b 573d 6baf 653c 4940 083d 3ab1 9cbd
00000120: de3d 5bbc 5f3f 90bd 035a af3b 7e71 edbd
00000130: 4fda 023d 5e3d 90bd 72d8 8bbc e46c 87bd
00000140: f72c 28be cbcd d8bd 50f4 38bd d7ab cdbd
00000150: 3c33 75bd ed7d 90be 791b 6ebd fb7f 01be
00000160: 0cc5 14be ed6d 6bbd ece6 03be 8319 b3bd
00000170: 29d4 1abe 4e6a 45be 0b26 eebd f420 d1bd
00000180: 5f5e 8dbd fe32 313d 487b 0ebd 8e71 3a3d
00000190: 3741 00be 321f 743a 8eaa 953d c6ac 8dbd
000001a0: 402b dabc 3711 bfbd c9ea 083c 46e9 37bd
000001b0: f891 1cbd f439 de3c c41d 82bd 6a7f afbc
000001c0: 49c3 42b9 3095 893d e861 073d 5344 52bd
000001d0: 67d6 96bd c23b 59bd 7aeb a33b 7c07 273d
000001e0: bef4 313c c20c 663d dd14 363d 8e6c a9bd
000001f0: 6ab9 373d b4d4 193d a925 593b 96bf 0b3e
00000200: 2bd3 0e3e c3b2 c53c 9c7b 3fbd 966f 643c
00000210: ccd6 913d 0f95 053b b62c 35bc aca0 03bd
00000220: 08f4 953d c2ec f93c c952 e23a 6dc3 9b3d
00000230: c3fe a7bc 0687 59bd a2df 823c ad4e 56bc
00000240: b128 8f3d 0503 7dbc eafc a73a 6a42 0abd
00000250: 0b88 b13c 71f4 093e 6cd7 c4bd 17b3 15bd
00000260: a24f 103d 007d f039 490b 90bb ec16 583c
00000270: 42eb 003e 97ae 433d 5824 b6bc 5360 a0bd
00000280: 2922 06bb a750 ae3c 1922 c23d 6e5a 203c
00000290: 4ef6 963b 6895 10bd 5afa e03c c73a d73d
000002a0: d13d 6abc a5e0 3b3b d972 bfbd 9c69 7f3d
000002b0: b949 0e3e 647c 9a3d 50fa 753d 8d1b d3bc
000002c0: 3659 2ebd e4a3 a23c 4c2d 09be f58a a23c
000002d0: 28b3 1fbc 8c7c 4b3d 3b1d b83d 52aa afbb
000002e0: 6754 d63d 0b11 2b3d 61a5 aa3d 0d2c 01bd
000002f0: 56f7 43bd 5c5c c43d 31f8 84bd b430 32bd
00000300: 1e73 adbd bb1d fabc bcd6 bf3d d704 d0bc
00000310: 376f 1f3d 5db2 b4bc 44cd 743d 24b9 ea3d
00000320: feb6 21bd 369f b2bc ee5f efba d81c 36bd
00000330: efa9 f3bc 8a7c 64bc de91 a0ba 29cc 17bd
00000340: 475a 97bd f095 ac3d 8f24 2a3d ce61 f33c
00000350: 07fc 483c c64f 073d ec94 733b 04e7 9e3d
00000360: 3ee8 0d3c 30ce ff3b 0959 38bd 0e96 0c3d
00000370: e35c 273e 7055 4abd 60da f1bd 409d a8bd
00000380: a389 8dbc d923 edba 432d 433d ac4e ed3c
00000390: bad6 1c3d 042e 0ebd 941c 3d3c 316c 023e
000003a0: 86af 7b3d 58ab 653d 774c 6a3d 7f5c 95bd
000003b0: fef8 7d3d a13b ef3b f447 593d 689d a33c
000003c0: 87f3 95bd 9194 b93c c9df ad3c dc8f 97bd
000003d0: a598 893a 8629 67bd 24da 863d 7d2f 913d
000003e0: 706a 16bd 3ac2 493d c178 6a3c 332d 05bd
000003f0: 29aa 973b 1370 9a3d 9f21 ebba 7a3f b2bd

fc1.bias f4 [120]
0.25929087 -0.06417834 0.052160647 0.1316486 -0.05453698 -0.052241035 -0.15107141 0.06428914
0.06800009 -0.056541495 0.0733105 0.25751257 0.1759863 0.15108941 -0.010849146 0.07976311
0.2113092 0.1111177 -0.010753782 0.009276069 -0.18283874 -0.02795094 0.046512324 -0.14839907
-0.25969943 0.16387786 0.30548915 -0.053319987 0.15361382 0.09709374 0.026804358 -0.011121535
0.053001024 -0.017948179 0.19837639 0.08459632 0.024463749 -0.01627156 0.107309155 0.1144682
0.021638906 -0.1887016 0.015682967 0.05039569 0.18754846 -0.07678613 0.06073657 0.0030642657
-0.07937744 0.014885616 0.0040260334 -0.02713493 -0.025578182 -0.064018026 0.05543056 0.09156765
0.054008808 -0.03881459 0.058515742 -0.005125774 -0.03203007 0.04037695 0.16165575 0.14874002
-0.030472672 -0.14118186 0.04850547 -0.09224591 0.04012533 0.16673934 -0.030453404 0.14686237
-0.05130546 -0.0487177 0.20789592 0.19351034 -0.0023719075 -0.12391678 -0.02601584 0.04481999
0.017689893 -0.036628436 0.0416731 0.021543534 0.2582183 0.16734767 0.094366655 0.035664298
0.021375714 -0.06856571 -0.03910801 -0.0121606365 0.19096418 0.06278624 -0.035835363 -0.038088433
0.028640866 0.036737345 0.15188856 -0.087665185 0.09991386 -0.014265569 0.13440084 -0.054079168
0.06703094 0.0887394 -0.1732836 -0.30450168 -0.12419698 0.13971905 -0.057632107 0.072649196
0.023807378 -0.025375698 0.08285993 0.158249 0.21469821 -0.07432903 -0.09620788 -0.2276244
00000000: c6c1 843e ef6f 83bd 67a6 553d e4ce 063e
00000010: 2b62 5fbd b2fa 55bd 77b2 1abe 06aa 833d
00000020: a243 8b3d 0e98 67bd d123 963d b0d8 833e
00000030: c135 343e 2fb7 1a3e 9ec0 31bc d75a a33d
00000040: 7061 583e ad91 e33d a130 30bc a7fa 173c
00000050: 143a 3bbe 5ff9 e4bc b583 3e3d edf5 17be
00000060: 53f7 84be 99cf 273e 1369 9c3e 0f66 5abd
00000070: f14c 1d3e 15d9 c63d d094 db3c 1937 36bc
00000080: 9a17 593d 0f08 93bc 2e23 4b3e d640 ad3d
00000090: 3368 c83c ef4b 85bc e7c4 db3d 4e6e ea3d
000000a0: 1344 b13c fe3a 41be 9179 803c b66b 4e3d
000000b0: b40c 403e 0c42 9dbd e9c6 783d d9d1 483b
000000c0: a490 a2bd cce2 733c d1ec 833b 134a debc
000000d0: 5689 d1bc e21b 83bd 280b 633d d287 bb3d
000000e0: 5738 5d3d 0cfc 1ebd 34ae 6f3d 1cf6 a7bb
000000f0: f631 03bd 4d62 253d 1689 253e 4e4f 183e
00000100: d3a1 f9bc fa91 10be acad 463d 6ceb bcbd
00000110: 755a 243d b8bd 2a3e 6b79 f9bc 1763 163e
00000120: ad25 52bd 368c 47bd abe2 543e 9327 463e
00000130: 0172 1bbb 15c8 fdbd 2c1f d5bc 2a95 373d
00000140: 65ea 903c b307 16bd 6ab1 2a3d 117c b03c
00000150: 3035 843e 305d 2b3e 4e43 c13d ba14 123d
00000160: 1f1c af3c 2e6c 8cbd b82f 20bd 683d 47bc
00000170: 1d8c 433e 1296 803d 1ac8 12bd 9e02 1cbd
00000180: 40a0 ea3c e679 163d ad88 1b3e ce89 b3bd
00000190: a39f cc3d 22ba 69bc 60a0 093e 1e82 5dbd
000001a0: 8447 893d 01bd b53d 4271 31be a5e7 9bbe
000001b0: fc5a febd 8312 0f3e a50f 6cbd 1ac9 943d
000001c0: b107 c33c b2e0 cfbc 78b2 a93d 070c 223e
000001d0: d9d9 5b3e d239 98bd a308 c5bd 5f16 69be

fc2.weight f4 [84, 120]
0.021941913 0.0934205 -0.1074891 0.122571446 0.11970177 -0.04473191 0.0296855 -0.092240214
0.07131332 -0.004576476 -0.09035664 0.035251163 -0.17407085 0.01891992 0.12918246 -0.16309214
-0.03737677 -0.15389098 0.024260184 -0.070796154 0.10352889 0.06001288 0.041057695 0.0070398417
0.04562486 -0.024430389 -0.008001341 -0.13389319 -0.0796597 -0.015910309 -0.0050199116 -0.023617206
-0.1720691 -0.069537394 -0.10893804 -0.14290002 0.05430095 -0.094196804 -0.038286228 -0.04475985
0.03661054 0.00835817 0.015806314 -0.023406653 -0.123236164 -0.12019314 0.0132040465 -0.04690163
0.042698257 -0.074238904 -0.006158443 -0.016502827 0.059310928 -0.011166601 0.15969302 0.18249631
0.030387394 0.012013178 -0.12144898 0.03618328 0.18891737 0.074770324 -0.033801716 -0.032669213
0.007844959 0.002445816 0.09228988 -0.013373238 -0.02710639 -0.057044547 -0.055206925 -0.015075481
0.013102493 0.0039630663 0.066074565 -0.15548311 -0.07695837 -0.054187633 0.06669433 -0.08868531
0.045009855 -0.009562036 0.018011477 0.10729073 -0.1322781 -0.06752741 -0.016038593 -0.103115045
0.0066558383 -0.043775287 0.0022540723 -0.0067502554 -0.06849003 0.02865256 -0.068162486 0.012923409
0.06453895 -0.040770337 -0.17234485 -0.05164677 -0.16992268 0.08482951 -0.026311632 0.080658615
0.015270981 0.009952963 -0.053569946 0.085726626 -0.0027556543 -0.09648821 -0.06366519 -0.017328879
-0.062212955 0.013330745 0.06257577 0.14670481 -0.1358244 -0.017438104 -0.06323568 -0.13578148
-0.024328573 -0.14489202 -0.09349467 0.046521824 0.18600127 -0.0561929 0.12865995 0.08782819
-0.059531372 -0.09068244 -0.15516768 -0.10835835 -0.041755125 0.041305892 0.060035314 -0.1314477
-0.112790436 -0.02456659 -0.11690821 -0.15449253 0.118996285 -0.12078267 -0.10667515 0.0098929955
0.11216351 -0.055050697 -0.01704142 -0.17005186 -0.06519116 -0.027396353 0.128481 -0.11036705
0.045142394 -0.0036737882 -0.09082978 -0.09496202 -0.008147059 0.11095086 -0.01945759 0.05394384
-0.073513195 0.11644677 0.06639941 -0.1974955 -0.007245296 -0.010276467 0.026098577 0.057431597
0.02878921 -0.104090564 0.017764457 0.09039669 0.02858048 0.03407874 -0.05787712 0.031294048
0.034286965 0.041935507 -0.1808073 0.06674055 0.1289564 0.03404014 -0.08268511 0.04928229
-0.1671576 0.14198694 -0.20816383 0.040306967 0.021969315 -0.21223003 -0.06138675 0.05028886
0.10771206 -0.05988433 0.060715456 0.045711916 0.033299316 -0.07550494 0.014496434 0.11630827
0.0023091887 0.07468851 -0.25112543 0.06537962 -0.28793022 -0.006821872 -0.010158276 -0.033155363
-0.14349256 0.04706004 0.0019216705 0.057806242 -0.071849324 0.06632237 -0.08230214 -0.076065004
0.16886503 -0.14788193 -0.056302916 -0.039696917 -0.022633249 -0.1686018 -0.08176745 -0.03697264
0.031027457 -0.09658092 -0.076143645 0.15244949 -0.0020381971 0.014338007 0.06415193 -0.039594352
0.10521699 0.016351039 -0.09737531 -0.14788137 -0.047316894 -0.073630005 -0.0712168 0.058871724
-0.021895388 0.047587752 -0.0775303 -0.0021738226 -0.017816206 -0.03472088 -0.13025329 -0.01168657
0.12255387 -0.036401097 0.09811951 -0.03813479 0.08991384 -0.023392597 -0.13995953 -0.102428496
00000000: 87bf b33c 3f53 bf3d 3f23 dcbd bd06 fb3d
00000010: 3426 f53d cf38 37bd 012f f33c 70e8 bcbd
00000020: b80c 923d 43f6 95bb e70c b9bd 8663 103d
00000030: a13f 32be f3fd 9a3c 6848 043e a001 27be
00000040: 6218 19bd 9995 1dbe 4bbd c63c 93fd 90bd
00000050: f406 d43d 11d0 753d 1d2c 283d 79ae e63b
00000060: 22e1 3a3d 3d22 c8bc 0e18 03bc 4c1b 09be
00000070: a024 a3bd 5656 82bc 127e a4bb df78 c1bc
00000080: e232 30be 9f69 8ebd e81a dfbd 6254 12be
00000090: ac6a 5e3d 41ea c0bd 05d2 1cbd 1b56 37bd
000000a0: eff4 153d b5f0 083c 3e7c 813c 4fbf bfbc
000000b0: 3e63 fcbd d227 f6bd c955 583c ec1b 40bd
000000c0: 5ee4 2e3d 910a 98bd c4cc c9bb f030 87bc
000000d0: 04f0 723d 1ff4 36bc 9186 233e 50e0 3a3e
000000e0: fcee f83c ecd2 443c 3eba f8bd eb34 143d
000000f0: 8e73 413e 2f21 993d ab73 0abd 27d0 05bd
00000100: 2588 003c fc49 203b 7a02 bd3d 6d1b 5bbc
00000110: 380e debc 8ba7 69bd a820 62bd 26ff 76bc
00000120: d7ab 563c 9cdc 813b 1a52 873d f736 1fbe
00000130: 5a9c 9dbd daf3 5dbd 0997 883d a5a0 b5bd
00000140: 415c 383d 16aa 1cbc ce8c 933c 3ebb db3d
00000150: e973 07be d04b 8abd 5e63 83bc fb2d d3bd
00000160: 3819 da3b b74d 33bd 0fb9 133b 3f31 ddbb
00000170: 8044 8cbd c6b8 ea3c c698 8bbd b5bc 533c
00000180: ff2c 843d ccfe 26bd 2b7b 30be 908b 53bd
00000190: 3600 2ebe 18bb ad3d 7e8b d7bc 5830 a53d
000001a0: 2333 7a3c c111 233c 296c 5bbd 7191 af3d
000001b0: 3598 34bb 9c9b c5bd e562 82bd 4bf5 8dbc
000001c0: 03d3 7ebd 3269 5a3c ba27 803d c939 163e
000001d0: 8d15 0bbe 5bda 8ebc b581 81bd 4d0a 0bbe
000001e0: b74c c7bc 935e 14be 227a bfbd ab8d 3e3d
000001f0: 1e77 3e3e 872a 66bd 6fbf 033e 44df b33d
00000200: 2bd7 73bd b7b7 b9bd 47e4 1ebe fcea ddbd
00000210: 6c07 2bbd 5e30 293d 97e7 753d 3a9a 06be
00000220: acfe e6bd e03f c9bc 926d efbd 4a33 1ebe
00000230: 53b4 f33d e85c f7bd 8078 dabd 3b16 223c
00000240: fbb5 e53d d77c 61bd 739a 8bbc 1322 2ebe
00000250: f182 85bd 516e e0bc 8690 033e 1f08 e2bd
00000260: 3be7 383d f0c3 70bb f704 babd 737b c2bd
00000270: 3e7b 05bc 343a e33d 8665 9fbc 37f4 5c3d
00000280: 168e 96bd a57b ee3d 6afc 873d 433c 4abe
00000290: f369 edbb a05e 28bc afcc d53c 653d 6b3d
000002a0: 59d7 eb3c 6f2d d5bd c486 913c e621 b93d
000002b0: 9c21 ea3c 2696 0b3d 8f10 6dbd 302e 003d
000002c0: 7d70 0c3d 91c4 2b3d 8d25 39be 45af 883d
000002d0: 260d 043e ad6d 0b3d d056 a9bd 3adc 493d
000002e0: 5d2b 2bbe 0665 113e e628 55be eb18 253d
000002f0: fef8 b33c d452 59be ac70 7bbd b1fb 4d3d
00000300: 2498 dc3d 4549 75bd c5b0 783d 6b3c 3b3d
00000310: dd64 083d 55a2 9abd 7382 6d3c 0833 ee3d
00000320: c255 173b 4af6 983d 8393 80be c0e5 853d
00000330: 976b 93be 038a dfbb e66e 26bc ebcd 07bd
00000340: b7ef 12be 07c2 403d 90e0 fb3a 3dc6 6c3d
00000350: bd25 93bd 06d4 873d 068e a8bd f8c7 9bbd
00000360: f4ea 2c3e 5c6e 17be e39d 66bd 3c99 22bd
00000370: 5d69 b9bc f3a5 2cbe b175 a7bd 9f70 17bd
00000380: 4b2d fe3c 38cc c5bd 33f1 9bbd b81b 1c3e
00000390: 4693 05bb f6e9 6a3c 1662 833d b02d 22bd
000003a0: 017c d73d 9df2 853c b56c c7bd 376e 17be
000003b0: 5ccf 41bd 54cb 96bd 1dda 91bd 7a23 713d
000003c0: f55d b3bc 60eb 423d 35c8 9ebd b176 0ebb
000003d0: 4bf3 91bc 7b37 0ebd 1e61 05be 0779 3fbc
000003e0: 86fd fa3d 5119 15bd e2f2 c83d 3a33 1cbd
000003f0: bf24 b83d d5a1 bfbc 8d51 0fbe 08c6 d1bd

fc2.bias f4 [84]
-0.042675775 -0.010204519 0.24091507 0.15974295 0.15124005 0.015294375 0.2030811 0.10128749
0.09617417 0.3502706 0.21825899 0.29753962 0.6472805 -0.0069320984 -0.086311944 0.22361238
0.23758875 0.028221747 0.0051154667 0.16464978 0.1836954 0.26572442 -0.1635058 -0.078833915
0.2731095 0.05257008 -0.025066456 0.21735765 -0.078173906 -0.04886664 0.06586916 -0.1008355
0.1791512 -0.14296354 -0.16080953 -0.12719846 0.06701227 0.07705507 0.47815317 0.3697217
0.21207596 0.33303455 0.42862222 0.25750646 0.3570555 0.20983839 0.046678748 -0.12975648
0.09058435 0.095821835 0.15233648 0.3824657 0.31375447 0.0053348797 0.10109027 0.11697977
0.23023199 -0.050159533 -0.0955985 -0.06998051 -0.01639237 0.077010706 0.013468789 0.16335651
-0.02697562 0.0525227 0.26298523 0.2622908 -0.009698409 0.01734058 0.032646112 -0.029926185
-0.009776051 -0.09142004 0.43070817 0.094575 0.574199 0.08791698 -0.043770492 -0.030346006
0.2918314 -0.10424679 -0.08619624 0.2887128
00000000: cbcc 2ebd db30 27bc 71b2 763e a893 233e
00000010: acde 1a3e 4295 7a3c 7ef4 4f3e d16f cf3d
00000020: f7f6 c43d ab56 b33e 497f 5f3e 1d57 983e
00000030: 2db4 253f a826 e3bb 51c4 b0bd a5fa 643e
00000040: 774a 733e 4b31 e73c a59f a73b f499 283e
00000050: a61a 3c3e 080d 883e 106e 27be ad73 a1bd
00000060: 02d5 8b3e b953 573d 2b58 cdbc 0193 5e3e
00000070: a419 a0bd 6328 48bd 69e6 863d d882 cebd
00000080: 6a73 373e 0965 12be 41ab 24be 5040 02be
00000090: bb3d 893d 0ccf 9d3d 7ed0 f43e 2a4c bd3e
000000a0: 712a 593e 8183 aa3e 5f74 db3e e3d7 833e
000000b0: facf b63e e0df 563e 3732 3f3d e2de 04be
000000c0: 4a84 b93d 3d3e c43d 18fe 1b3e 8bd2 c33e
000000d0: 6da4 a03e 37d0 ae3b 6a08 cf3d 1793 ef3d
000000e0: efc1 6b3e 1574 4dbd 25c9 c3bd f151 8fbd
000000f0: 4b49 86bc cab7 9d3d 32ac 5c3c ee46 273e
00000100: fafb dcbc 0b22 573d 00a6 863e fb4a 863e
00000110: 13e6 1ebc d50d 8e3c eeb7 053d c227 f5bc
00000120: bb2b 20bc 6e3a bbbd c885 dc3e 8ab0 c13d
00000130: b5fe 123f d10d b43d b048 33bd 3098 f8bc
00000140: ed6a 953e 577f d5bd a787 b0bd 2ad2 933e

fc3.weight f4 [10, 84]
0.018497173 0.16667615 -0.09516004 -0.22117634 -0.07906109 0.007324762 -0.110568866 0.18798834
0.24216753 -0.18867038 0.19297332 0.09859348 0.14508103 0.14270534 -0.08809635 0.23894505
-0.013545605 0.091499895 0.18228069 0.18543665 0.08871175 -0.15669347 -0.012839166 -0.09347552
0.04487707 -0.082143426 -0.05725781 0.20905049 0.020943705 0.058409136 0.0852927 -0.085899584
-0.007039997 0.08871237 0.24124496 0.15163684 -0.15831545 0.023112237 -0.10541797 -0.18270247
0.20753163 0.18124785 -0.005883444 -0.026165763 -0.24702932 -0.07766663 0.028889373 -0.077852845
0.19251841 -0.028448444 -0.12386006 -0.18366927 -0.11533665 0.15357105 -0.044996098 0.09903988
-0.07103088 0.29746017 -0.09331418 0.14820322 -0.20071362 -0.3553845 0.24547318 0.21242464
-0.02809735 0.026056595 -0.23300353 -0.057422828 0.037351795 0.0013426179 0.21209383 0.15477875
0.16149232 0.26048392 -0.33510578 0.058698416 -0.33817 -0.25776595 0.093647085 0.02493741
-0.04053339 -0.010061084 -0.052196775 0.12993431 0.072274044 -0.026172856 0.09556174 0.20963454
-0.08924938 -0.04626881 -0.11217545 0.3660128 0.14935552 -0.20313077 0.17456038 0.063934304
-0.20402771 0.21875046 0.10127639 0.15377846 -0.25265384 -0.14269602 0.014673497 0.0004189412
-0.02247934 0.03440745 0.30585405 -0.057934888 -0.43571135 0.022504188 -0.03284649 -0.18592428
-0.056808066 0.07736331 0.16691546 0.23057666 -0.11050197 0.15222299 0.10020205 -0.089283474
0.028865922 0.22398949 -0.26832947 -0.095362246 -0.10238892 0.051876362 -0.15951204 -0.11008085
-0.29048467 0.13124979 0.057571806 0.013851424 0.18481705 -0.07755031 -0.24095063 -0.23602118
0.0014546507 0.015631739 -0.07244204 -0.2965685 -0.23021825 -0.26250327 -0.004494509 0.28135487
0.25074384 0.10144084 -0.022472769 -0.058337633 -0.1215248 0.10015596 -0.04605236 -0.221395
0.14717212 -0.008876677 -0.21180625 0.0035959214 -0.12681611 -0.19325878 -0.054081626 -0.08969851
-0.022430813 0.1620676 0.01608796 0.10011029 -0.1296673 0.045781106 0.1005222 -0.1436307
0.0065457514 -0.041665766 -0.1382496 0.052674975 0.11053134 -0.124035075 -0.16081071 -0.20413761
-0.13313015 0.11619878 -0.14951473 0.03558875 0.18557501 0.06293964 -0.03775147 0.0336583
0.14641215 -0.09880258 0.024409868 -0.057708412 0.21093827 -0.022321118 -0.05717327 0.15168299
0.24529685 -0.15663017 -0.03069906 0.061368287 0.043156896 0.18928282 -0.116407305 -0.04205736
0.09416971 -0.054317974 0.019443152 -0.04439454 -0.16435376 -0.01533756 0.21336624 0.069665596
0.25466752 0.12735848 -0.13780071 0.0282261 0.27270338 -0.055604402 0.097708926 -0.0070762187
0.037302025 -0.20176485 0.16348071 -0.10895451 -0.076109834 -0.0985445 0.16413814 -0.13786002
-0.052416548 0.28440338 0.043321975 -0.099538796 0.115210794 0.010613065 0.23163018 -0.048400123
0.13830161 0.18093845 -0.07055734 0.112956844 -0.118368514 0.22794777 -0.011002595 -0.07152692
0.31477478 0.12033802 0.28791124 -0.031404834 0.057539657 0.11880364 0.009902236 0.04747336
-0.0080572115 0.14875714 0.077304214 -0.00283045 0.012907519 -0.09426875 0.2179109 -0.01167477
00000000: 6287 973c 27ad 2a3e 44e3 c2bd 0d7c 62be
00000010: c8ea a1bd 8f04 f03b ee71 e2bd 0480 403e
00000020: c4fa 773e cf32 41be cc9a 453e 61eb c93d
00000030: 1f90 143e 5921 123e dc6b b4bd 03ae 743e
00000040: 63ee 5dbc 4c64 bb3d caa7 3a3e 1be3 3d3e
00000050: 82ae b53d 4174 20be 5e5b 52bc 1870 bfbd
00000060: 05d1 373d d03a a8bd 2a87 6abd 5511 563e
00000070: 2292 ab3c 6b3e 6f3d f0ad ae3d 1fec afbd
00000080: c6af e6bb d5ae b53d eb08 773e b046 1b3e
00000090: 721d 22be e055 bd3c 60e5 d7bd 5b16 3bbe
000000a0: 2c83 543e 0999 393e e8c9 c0bb 9559 d6bc
000000b0: 41f5 7cbe af0f 9fbd 68a9 ec3c 5071 9fbd
000000c0: 8c23 453e b60c e9bc 58aa fdbd cc13 3cbe
000000d0: 9f35 ecbd bb41 1d3e d44d 38bd 6cd5 ca3d
000000e0: a378 91bd b34c 983e 811b bfbd 96c2 173e
000000f0: df87 4dbe f5f4 b5be 525d 7b3e d885 593e
00000100: 6a2c e6bc a474 d53c 7a98 6ebe 3334 6bbd
00000110: 32fe 183d c8fa af3a 202f 593e 527e 1e3e
00000120: 3e5e 253e 265e 853e fc92 abbe c06d 703d
00000130: 9e24 adbe e6f9 83be 0bca bf3d 8a49 cc3c
00000140: 5706 26bd 3fd7 24bc 49cc 55bd 800d 053e
00000150: 6a04 943d 7568 d6bc e0b5 c33d 70aa 563e
00000160: 61c8 b6bd 5d84 3dbd 3ebc e5bd 0866 bb3e
00000170: a7f0 183e 8301 50be f5bf 323e fdef 823d
00000180: a4ec 50be 1f00 603e ff69 cf3d 1a78 1d3e
00000190: d85b 81be e81e 12be 1b69 703c 56a5 db39
000001a0: 9826 b8bc d4ee 0c3d e798 9c3e 224d 6dbd
000001b0: 8f15 dfbe b45a b83c 0b8a 06bd ef62 3ebe
000001c0: 93af 68bd a870 9e3d e3eb 2a3e 4a1c 6c3e
000001d0: db4e e2bd 58e0 1b3e bb36 cd3d 41da b6bd
000001e0: 3a78 ec3c 805d 653e 7b62 89be 484d c3bd
000001f0: 48b1 d1bd 4f7c 543d 2057 23be 1272 e1bd
00000200: 68ba 94be 5866 063e 6ad0 6b3d 15f1 623c
00000210: ae40 3d3e b2d2 9ebd c3bb 76be 89af 71be
00000220: faa9 be3a 220e 803c 7e5c 94bd d4d7 97be
00000230: 55be 6bbe d466 86be ad46 93bb bf0d 903e
00000240: 7f61 803e 37c0 cf3d d018 b8bc 71f3 6ebd
00000250: ffe1 f8bd 911e cd3d 66a1 3cbd 5fb5 62be
00000260: 4ab4 163e 7b6f 11bc bde3 58be 8da9 6b3b
00000270: 15dc 01be a1e5 45be b284 5dbd dab3 b7bd
00000280: d3c0 b7bc 0df5 253e e6ca 833c a006 cd3d
00000290: 81c7 04be f884 3b3d 95de cd3d ed13 13be
000002a0: be7d d63b b9a9 2abd 4e91 0dbe b7c1 573d
000002b0: 415e e23d 1a06 febd 90ab 24be 7309 51be
000002c0: 4553 08be a0f9 ed3d 641a 19be 82c5 113d
000002d0: 6007 3e3e 7fe6 803d 49a1 1abd 49dd 093d
000002e0: 11ed 153e 0259 cabd 34f7 c73c a85f 6cbd
000002f0: 3400 583e c7da b6bc 852e 6abd c952 1b3e
00000300: 192f 7b3e a963 20be 987c fbbc 505d 7b3d
00000310: 49c5 303d 5bd3 413e f466 eebd 5744 2cbd
00000320: 0ddc c03d 867c 5ebd 3f47 9f3c 0dd7 35bd
00000330: 5a4c 28be 644a 7bbc ae7c 5a3e d6ac 8e3d
00000340: c863 823e 436a 023e a11b 0dbe 6c3a e73c
00000350: c79f 8b3e 71c1 63bd 9e1b c83d a0df e7bb
00000360: 02ca 183d 729b 4ebe 7d67 273e 8b23 dfbd
00000370: 79df 9bbd b3d1 c9bd d413 283e 2d2b 0dbe
00000380: bcb2 56bd 529d 913e 6272 313d ffda cbbd
00000390: a3f3 eb3d 6ce2 2d3c 7630 6d3e 353f 46bd
000003a0: f09e 0d3e ee47 393e 5e80 90bd eb55 e73d
000003b0: 316b f2bd 246b 693e 3a44 34bc b57c 92bd
000003c0: 292a a13e c873 f63d 1a69 933e 5ba2 00bd
000003d0: b4ae 6b3d 534f f33d fd3c 223c 6d73 423d
000003e0: 6502 04bc cb53 183e ac51 9e3d 127f 39bb
000003f0: 0f7a 533c f90f c1bd 0924 5f3e 8947 3fbc

fc3.bias f4 [10]
-0.38481808 -0.5489119 -0.17149374 0.52235967 0.72331697 -0.01745316 0.23214066 -0.13397986
0.12725985 -0.08905712
00000000: e006 c5be 7e85 0cbf 0e9c 2fbe 5db9 053f
00000010: 4d2b 393f eef9 8ebc 48b6 6d3e 0432 09be
00000020: 6850 023e 9463 b6bd
