model/cifar10_pytorch.pth (torch, 251688 bytes, 10 tensors)

conv1.weight f4 [6, 3, 5, 5]
000000 08 9c c0 3b 38 64 c4 be fe 1d 97 bd e5 f7 ac 3e
       0.0058779754 -0.3835771 -0.073787674 0.3378288
000010 f8 98 91 3d f3 71 82 3e 98 4c f9 3c de 55 1e bf
       0.071092546 0.2547756 0.03043203 -0.6184977
000020 b0 ad b5 be 13 52 0b 3f 4c f8 e7 3d c3 fc cc 3e
       -0.35484076 0.5442211 0.11326656 0.40036592
000030 f8 c3 8d bd d3 75 65 bf 4b 31 2e 3e c6 ac 2f 3d
       -0.06922144 -0.8963291 0.17010991 0.04288938
000040 32 52 af 3e 5a 61 f2 3e a7 cf 03 bf 36 33 92 be
       0.34242398 0.47339898 -0.5148873 -0.28554696
000050 08 0c 8b bd 6b 02 47 3e 4a 26 bf 3e 60 2f ba 3d
       -0.06789404 0.19434516 0.373339 0.09091067
000060 f0 7e d5 3c c6 d2 06 be ff 43 32 be e7 83 4e be
       0.026061505 -0.13166341 -0.17408751 -0.20167504
000070 d9 56 ad 3e f3 74 94 3e e5 aa 1b 3e cb 39 c2 3c
       0.33855322 0.28995475 0.1520191 0.023709198
000080 1e 86 17 bf 43 a4 e3 be 22 9d 14 3f c6 f3 30 3e
       -0.5918902 -0.4446126 0.58052266 0.17280492
000090 1d fb f6 3e 8a 2c 0b 3c 7f 15 82 bf ab 7a 69 3e
       0.4823846 0.008494506 -1.016281 0.228007
0000a0 84 85 2a be 58 41 ab 3e e6 e8 81 3e 3a 78 20 bf
       -0.16652495 0.3344829 0.25373 -0.6268345
0000b0 66 24 ae be 4d 56 0d be 21 ef 24 bc 59 bd 91 3e
       -0.34012145 -0.13802452 -0.010066778 0.28464773
0000c0 29 b0 05 be c0 83 a0 be 4e 45 bb bd 80 29 7d be
       -0.13055481 -0.31350517 -0.09144078 -0.24722862
0000d0 9b ba 2e be cd e8 be 3e 52 0b 0e be e2 b0 78 3e
       -0.17063372 0.37286988 -0.13871506 0.24286225
0000e0 5a 7e ad bb e3 ca 09 bf 05 48 a9 be 9d 25 e2 3e
       -0.0052946033 -0.53825206 -0.3306276 0.44169322
0000f0 9b bf 3a 3e 93 23 00 3f f0 ed d2 bd 74 51 6e bf
       0.18237154 0.5005428 -0.10299289 -0.9309304
000100 01 e4 38 3d a7 0b c1 bd d1 8f 19 3f fb 0f 00 3f
       0.045139316 -0.09426051 0.5998507 0.50024384
000110 27 87 0a bf 02 c5 a6 be c6 19 b6 bd 45 b6 a0 3e
       -0.54112476 -0.3257218 -0.08891635 0.3138906
000120 5d fd f0 3e 11 e8 8c 3d 3f c0 56 be 73 92 fa 3e
       0.470683 0.06880201 -0.20971774 0.48939857
000130 9f 59 2c 3f 5a 5f 05 3f 4b 55 d0 3e a1 60 81 3e
       0.6732425 0.5209862 0.40690073 0.25269035
000140 4e 83 b8 3e c0 93 18 3f d0 87 bb 3e 9f dd 13 bd
       0.36037678 0.5960045 0.36627054 -0.036100026
000150 44 70 49 bd 00 09 9b 3e af 20 9e 3e b0 aa 40 bd
       -0.04917933 0.30280304 0.3088431 -0.04703778
000160 7d b8 5b be 52 46 70 bd b7 c6 4e 3e d1 03 d3 3b
       -0.21457095 -0.058660813 0.20192991 0.006439664
000170 d7 3a 8d be d7 35 57 be 1a ed ee bd 2b bf 05 bd
       -0.27583954 -0.21016632 -0.11666317 -0.032653015
000180 ad 38 8e be a1 05 99 be 79 a3 88 be 7f d6 e5 be
       -0.27777615 -0.29887107 -0.2668722 -0.4489021
000190 b1 cc 65 bc 78 fe 09 be 4a 28 60 be a6 f0 b2 be
       -0.014025853 -0.13475978 -0.21890369 -0.34949225
0001a0 8b e4 a7 bd 8c 6e 38 be 46 91 98 be 52 b4 13 bf
       -0.08197888 -0.1801092 -0.29798335 -0.5769702
0001b0 2c da 1e bf eb 37 64 be 51 76 ba bd ab 91 a6 be
       -0.62051654 -0.22286956 -0.09104598 -0.3253301
0001c0 7a c8 25 bf a2 3e cf be 3a 35 a8 3e 09 04 ae 3d
       -0.6475903 -0.40477473 0.3285311 0.084968634
0001d0 a3 39 8c be 42 00 ba be c2 ae ef 3d 1c 71 fd 3e
       -0.27387723 -0.36328322 0.11703254 0.49500358
0001e0 a3 88 8c bd f7 93 52 be ed dc 81 bd d3 a3 cc 3e
       -0.06861999 -0.20564257 -0.063409664 0.39968738
0001f0 d5 16 c6 3e f5 30 8e bc 27 12 7e bd cc 03 00 3b
       0.38689294 -0.017357329 -0.06202903 0.0019533513
000200 ca 2b e9 bd 6a f0 08 3e f5 39 86 3d 60 d0 76 be
       -0.11385305 0.1337296 0.06554023 -0.24102926
000210 be 40 98 be 86 00 39 be 08 86 0f 3e cb 54 f8 bc
       -0.29736894 -0.18066606 0.14015973 -0.03031387
000220 34 f1 1f be e4 03 cb be 5e 5b 57 bd 23 8c a8 3e
       -0.15619355 -0.39651406 -0.05257737 0.32919416
000230 02 e4 7a 3d f1 3a bd bd 16 6c 76 be c7 72 76 3e
       0.0612526 -0.09239758 -0.24064669 0.24067222
000240 e9 4a 0a 3f f3 83 c9 3d 5e 81 c7 3c ff 50 bf 3c
       0.54020554 0.098396204 0.02435368 0.023354052
000250 49 6e f0 3e ef 3b 05 3f 8a 11 99 3d d6 29 a2 3d
       0.4695914 0.52044576 0.074740484 0.07918136
000260 fa 5f 0e 3e 06 00 70 3d 3e fb 0a 3e 5d 50 1e be
       0.139038 0.058593772 0.13572404 -0.15460344
000270 0f b5 ce 3b eb a6 9c 3c a4 c9 04 be d5 d9 9c 3d
       0.006308205 0.019122561 -0.12967545 0.07658736
000280 84 ce 31 bd 10 b6 e5 bc 6e 51 56 be 2c 62 84 be
       -0.04340984 -0.028040916 -0.209295 -0.2585615
000290 d4 69 fe bd d1 1c 0c be 55 9d d0 bd 83 5e b5 bd
       -0.12422529 -0.13682868 -0.10186259 -0.08855917
0002a0 05 4a 3d be de b4 41 be a4 46 1c be 4a 02 11 be
       -0.18485267 -0.18916652 -0.15261322 -0.1416103
0002b0 9d 39 33 be e8 e3 42 be 0b 28 3b bd d3 12 90 be
       -0.17502446 -0.19032252 -0.045692485 -0.28139362
0002c0 c8 fc 7a be b7 e2 df bd 43 32 68 bd 2d 37 b9 bd
       -0.24510491 -0.10931914 -0.05668856 -0.09043727
0002d0 46 3f 04 be f5 91 87 bc 84 13 77 3d e1 e5 b0 3d
       -0.12914762 -0.01654909 0.060321346 0.08637596
0002e0 7f ad 13 be f7 a7 27 bc 8d 69 dc 3d 50 04 cc 3d
       -0.14421652 -0.010232917 0.1076232 0.0996176
0002f0 01 27 60 bd e4 bb 8b be 27 36 85 3b ad 9a 82 3e
       -0.054724697 -0.27291787 0.0040652934 0.25508633
000300 a0 a2 65 3d 3c 63 74 3d af 6a f5 bd 21 78 d6 3c
       0.056063294 0.05966495 -0.11983239 0.026180329
000310 04 d9 99 3d a3 59 ed bd da a7 e2 bd 93 03 2a be
       0.075120956 -0.115893625 -0.110671714 -0.16602926
000320 4a b4 38 be 15 b5 1b bd 46 0c 3f 3c 1e bf 9a 3d
       -0.18037525 -0.03801449 0.011660641 0.07555984
000330 4f e9 14 bd 0f b0 fb 3d 50 f1 97 3e 5d e7 6b 3e
       -0.036355313 0.1228944 0.29676294 0.23037477
000340 a2 87 85 3e 7d 71 42 bd db 35 c5 3e 95 fc 11 3f
       0.26080042 -0.047471512 0.3851765 0.57026035
000350 29 ff ce 3e 4c e1 19 3e 15 cb 61 bd c2 e3 e5 3e
       0.40429047 0.1502735 -0.055125315 0.44900328
000360 9d c4 ec 3e d4 f8 a2 3e c7 3f b6 3d cc 9f 7b bc
       0.46243754 0.31830466 0.08898883 -0.015357923
000370 0e 51 72 3e 86 c1 98 3e c8 da 46 3e 44 43 48 bc
       0.23663732 0.29835147 0.19419396 -0.012223069
000380 48 1e 49 be 85 47 e3 3d e9 2f 92 3e 24 ad 9c 3e
       -0.19640458 0.11097626 0.28552178 0.30600846
000390 dc 6e 90 bb 3b 27 2b bd fa 98 8d 3e 3f 33 b5 3c
       -0.0044077467 -0.04178546 0.27655774 0.022119163
0003a0 34 eb 62 be f5 25 3f be 7d 98 7a 3e 4b 42 a6 3d
       -0.22160035 -0.18666823 0.24472232 0.08118113
0003b0 b5 c2 c9 be fc 12 b1 be 32 73 b5 3a af f2 b1 3e
       -0.39406362 -0.34584796 0.0013843535 0.34755465
0003c0 f7 5c ad be 1a ee 09 bf 1a 12 26 bd 9d 57 98 3d
       -0.3385999 -0.5387894 -0.040544607 0.07438586
0003d0 08 48 cd 3d 89 7d 07 bf 63 f8 b2 be 9d 4f fb 3d
       0.100235045 -0.52925926 -0.3495513 0.122710444
0003e0 38 80 f7 bd 7e 28 27 3d 7f 26 97 be 1b 49 cd bd
       -0.12085003 0.0408101 -0.29521558 -0.100237094
0003f0 28 f0 10 be 09 6d 88 be 9a 59 8e be f1 81 56 3d
       -0.14154112 -0.26645687 -0.27802736 0.052370016

conv1.bias f4 [6]
000000 f5 86 dc be c6 d8 9d be 40 70 6d 3e a1 8a ae be
       -0.43071714 -0.30829448 0.23187351 -0.3409014
000010 1e da ab be 03 d3 39 be
       -0.33564848 -0.18146901

conv2.weight f4 [16, 6, 5, 5]
000000 f1 0e 60 3e 85 0f 18 3e 84 0f f5 3d 4d 0f 80 3d
       0.218807 0.1484967 0.1196585 0.062529184
000010 b2 f3 5a be a7 32 0f 3e 2c 2e cb 3d 18 20 88 3d
       -0.21382025 0.13984166 0.09920916 0.066467464
000020 e6 62 5d 3d c4 73 0a be 22 48 69 bd ea 62 3e bd
       0.054049395 -0.13520724 -0.056953557 -0.04648105
000030 6e 6f bf 3d 3a 2f f5 3d e8 c5 15 be 70 3a c1 3d
       0.093474254 0.119718984 -0.14626276 0.09434974
000040 ef 04 f4 bd 2d ba 1d 3c 0e 8d b3 3d 9b e5 4c bd
       -0.119150035 0.009626907 0.087671384 -0.050023656
000050 6a ec 00 3e 8d f4 76 3c 36 bb 9d 3e 0c 1c da bd
       0.12590185 0.015072954 0.30806893 -0.10649881
000060 38 c9 ec 38 e4 2f 76 3d 46 22 4e bd 9a e5 07 be
       0.00011290837 0.060104266 -0.050325654 -0.1327118
000070 66 a2 0d be 53 29 26 be b7 9a 11 3d 15 51 e1 bd
       -0.13831481 -0.16226701 0.03554794 -0.11001793
000080 45 ee b6 be 04 cb e1 be 1f f5 d2 be ae 73 1e 3e
       -0.3572866 -0.441002 -0.41202638 0.15473816
000090 51 0a 59 3e ca 4e 98 3d d2 3d 31 be a9 d5 85 be
       0.21195342 0.07436903 -0.17308739 -0.26139572
0000a0 c6 b7 c5 3c 31 47 0a 3e 8f c8 6c 3e a8 cc bc bd
       0.024135482 0.1350372 0.23123382 -0.092187226
0000b0 a5 91 84 be 55 7f fa bd 62 ee 56 3e 80 f0 24 3e
       -0.25892368 -0.12231318 0.20989373 0.16107368
0000c0 fc 79 9e bd 25 ef c6 be b5 9d 5d 3e 38 af 94 3e
       -0.077381104 -0.38854328 0.21642192 0.2903993
0000d0 f5 b6 c5 3e 93 77 65 3e e5 f7 91 3c cf f5 bd 3c
       0.38616148 0.22408895 0.0178184 0.0231885
0000e0 51 d2 82 3d 89 e6 a4 3d 87 2c a6 3d a8 9f 09 3e
       0.06387771 0.080517836 0.08113962 0.1343981
0000f0 7c bc aa bd 53 69 39 bd 6a 5c 05 bd 1e ad 53 3d
       -0.08336732 -0.04526646 -0.032558836 0.05167877
000100 c1 04 40 3d 4f e0 96 be ae 9a c4 bd 81 bb b4 3d
       0.046879534 -0.2946801 -0.09599815 0.08824826
000110 02 cc eb 3c b0 dd d5 3d df ab 4a be 03 48 2e be
       0.028783802 0.10442674 -0.19792126 -0.17019658
000120 5b 25 70 bd 96 2b 92 b8 9d f1 ae 3c 94 98 1d be
       -0.058629375 -6.969941e-05 0.021355445 -0.15390235
000130 79 5d d3 bd 6f 98 de bd 93 c7 b0 bc a8 2f de 3d
       -0.10320563 -0.10868918 -0.02157954 0.108489335
000140 4c d1 4b bd f4 ce b6 bd 9e 1b ea bd 9d 00 cb bd
       -0.049760148 -0.08926192 -0.11431049 -0.09912226
000150 da d1 16 be d2 b4 96 bc b0 a1 35 3b aa a9 35 bd
       -0.1472849 -0.018396769 0.0027714781 -0.044351257
000160 ea 2a 8a bd c3 17 0d be fa 78 2c 3e b4 86 d1 3d
       -0.067464665 -0.13778596 0.16843024 0.10230771
000170 67 34 50 3d b6 7e f7 3d 78 de 83 3d 8d 6a a0 bc
       0.050831225 0.12084715 0.06438917 -0.019582057
000180 20 47 e2 3d 02 b9 59 3b f8 15 5f 3e e0 f6 c4 3c
       0.11048722 0.0033221846 0.21785724 0.0240435
000190 0d 09 02 3f 1a cd 27 3e 82 af ce bc db f7 0d 3e
       0.5079506 0.16386834 -0.025230173 0.1386408
0001a0 06 e6 66 3e a1 2a 28 3e 1c 65 44 3e 65 9b 69 3e
       0.22548684 0.16422512 0.19179195 0.22813185
0001b0 a9 42 34 3d 70 0b 31 3d fb b1 50 bd fd 4f a3 bc
       0.044008885 0.0432238 -0.050950985 -0.019935602
0001c0 d4 af fe 3c 43 e6 fc bc 00 df ef 3d f8 ab a1 bc
       0.0310897 -0.030871516 0.11712456 -0.019735321
0001d0 41 4a b0 bd 44 dd cc bd 9e cc 99 bd 54 09 ec bc
       -0.08607913 -0.100031406 -0.07509731 -0.028813042
0001e0 4d df 56 be 04 6c 5a be 88 3a 06 be bc 77 f9 bd
       -0.2098362 -0.21330267 -0.13108265 -0.12181041
0001f0 cb 66 26 3e a2 76 93 bd c0 b7 c2 bd 9c bb 8f bd
       0.1625015 -0.07200362 -0.09507704 -0.070182055
000200 33 f3 51 be ed b9 98 be a6 cf 88 3d 91 3e 5a bd
       -0.2050293 -0.2982935 0.06680231 -0.053282324
000210 0d f0 13 bc 16 14 34 be 00 32 fc bd 58 d9 22 bd
       -0.009029401 -0.17585787 -0.12314224 -0.039758056
000220 d1 be a7 bd b4 de c7 bd 6a 7f 5b be d1 39 bd bd
       -0.08190692 -0.09759274 -0.21435323 -0.09239543
000230 c7 9b 78 3c 03 0d ed bd 4d a6 3a 3d 87 a8 cb bd
       0.015173859 -0.115747474 0.045568753 -0.099442534
000240 a7 f3 2b be 43 b4 ef 3d 80 5a f1 3d 8b 0b 1c bd
       -0.16792165 0.11704304 0.1178484 -0.038096946
000250 7e 8a 27 3e ce 00 1b be 2b 78 c2 bd 86 f2 30 be
       0.16361424 -0.15137026 -0.094955765 -0.17280015
000260 64 84 39 be 56 3e d0 bc 1a f1 c7 bd a5 2c 4e be
       -0.1811691 -0.02542035 -0.09762783 -0.20134218
000270 e6 08 0c 3e f1 53 7a bc 0f 3d 04 be 22 3f 18 3e
       0.1367527 -0.015278802 -0.12913917 0.14867833
000280 c8 e3 86 be 5d f0 c1 3e b2 3d fd bd 77 12 b1 bd
       -0.26345658 0.37878695 -0.12365283 -0.086461
000290 b5 09 dd 3d 8f 64 1b 3d 6a 47 d4 3e a1 a5 f7 bd
       0.10792867 0.037937697 0.41460735 -0.12092138
0002a0 37 42 25 3e ea a9 2d 3d 1e b2 4d 3e 07 83 99 3d
       0.1613854 0.04239837 0.20087478 0.074956946
0002b0 b5 15 c0 bd 9b 7d 29 3b f7 9c ab bd d7 86 85 3e
       -0.0937914 0.002586222 -0.08379548 0.26079437
0002c0 c7 4b 1c bd 0e 7b 3b bd a6 19 e7 bd fb 40 8e ba
       -0.038158204 -0.04577165 -0.11284189 -0.0010853106
0002d0 87 59 50 3e 02 93 2f be ae 89 18 3e f0 8b 9f 3d
       0.20346652 -0.17145923 0.1489627 0.07790363
0002e0 02 e5 ea 3c 25 18 e8 3d e1 b3 6c be 24 4b a3 3e
       0.028673653 0.1133273 -0.23115493 0.31893265
0002f0 ef 5f 3c be 5c 43 cd 3d 8e ce 8f bd 9c 4a ed 3d
       -0.18395971 0.100226134 -0.07021819 0.11586496
000300 03 3d 4b 3d 6b cc a7 bc 40 f1 e1 3d b3 c6 9f be
       0.049618732 -0.020483216 0.11032343 -0.31206283
000310 ed b9 9f bc 67 0b 67 be 74 0e 69 bd 5a b6 0d be
       -0.019497836 -0.22562943 -0.05689855 -0.13839093
000320 33 40 08 3e fd 48 50 3d 45 9f 04 3e f7 9f 30 3e
       0.1330574 0.050850857 0.12951382 0.17248522
000330 24 03 8d 3d b5 87 04 be 56 73 0b be 1f d3 89 bd
       0.06885365 -0.12942393 -0.13618216 -0.06729721
000340 fe 03 04 3d 38 75 c9 3d f5 d2 a1 be 29 a8 06 be
       0.03223037 0.09836811 -0.3160626 -0.13150086
000350 5f de 2b be 0e 67 39 be e4 b4 0a be 81 c8 b8 be
       -0.16784047 -0.18105718 -0.13545567 -0.36090472
000360 b2 bc 45 be b3 d7 58 be 53 c5 62 be b0 4d 8f be
       -0.19310263 -0.21176033 -0.22145586 -0.27988958
000370 e5 37 b2 be 5d 05 0e be cc d5 0f be 22 3a a5 bd
       -0.3480827 -0.13869233 -0.14046401 -0.080677286
000380 60 74 e6 bd fe 06 80 3e b0 ce 30 3e 17 35 84 3d
       -0.112526655 0.25005335 0.17266345 0.064554386
000390 45 f1 28 3e c1 79 0b 3e 84 b0 1c 3e 68 c4 af bd
       0.16498287 0.13620664 0.1530171 -0.085823834
0003a0 c3 0b 97 3d d8 a8 26 3b c3 14 1a be 94 0d 70 3d
       0.0737529 0.0025430229 -0.15046982 0.0586067
0003b0 30 5f 8d be c5 a1 f6 3e 50 f0 e7 3a 77 fe 36 be
       -0.27611685 0.48170295 0.001769552 -0.17870508
0003c0 90 ba 6f be e5 e5 15 3c b6 56 f7 3e f2 86 65 be
       -0.23411012 0.009149049 0.48308343 -0.22414759
0003d0 d2 f4 a2 bd a6 20 d7 be 9c 9a 0f 3e f4 ab cf bc
       -0.07956852 -0.42017096 0.14023823 -0.025350548
0003e0 72 90 29 be 26 47 b3 bd 21 e6 6e bd 68 1c 2a 3d
       -0.16559008 -0.08753805 -0.058324937 0.041530997
0003f0 8e 2b 1e bd 5b c5 16 3e 4e 27 60 3e fe e6 7a bd
       -0.038615756 0.14723723 0.21889994 -0.061255448

conv2.bias f4 [16]
000000 fc eb db be a8 44 e4 be f3 8b a1 3e ec ec 7f be
       -0.4295348 -0.4458363 0.31552085 -0.24992722
000010 9d f6 9b bf 82 65 e6 3e 66 a1 e6 3d 64 ed 3f 3e
       -1.2184635 0.4499932 0.11261253 0.18742901
000020 69 95 51 bf 18 a1 b8 3f b9 0b e8 3e e3 42 ae 3e
       -0.81868607 1.4424162 0.45321444 0.34035406
000030 55 62 7c 3f f4 9d 84 3e 88 64 25 3e a4 30 4e 3f
       0.9858754 0.2590176 0.16151631 0.8054297

fc1.weight f4 [120, 400]
000000 a6 b0 59 bd 26 46 3f bc 15 03 68 3b d0 c8 ac 3c
       -0.05314698 -0.01167444 0.0035402228 0.021091849
000010 39 60 7f bc 18 94 35 bd d3 b5 45 bc c6 30 53 bc
       -0.015586906 -0.044330686 -0.012067276 -0.012890046
000020 42 6d 40 bc e0 4e 84 3b a3 e7 c1 bc f8 a9 0d bd
       -0.011744799 0.004037723 -0.023670023 -0.034585923
000030 28 56 83 bc 4a 92 04 3b 83 a9 ee bb 56 5f 3f bc
       -0.016032293 0.0020228797 -0.007283391 -0.011680445
000040 26 5f 2a 3d e6 77 50 bd 9c 4e 18 bc 4a ec 91 3b
       0.041594647 -0.050895594 -0.009296086 0.0044532167
000050 88 e3 76 3d 8b 4a 0f 3d 84 80 22 3c f4 0a ea bc
       0.060275584 0.0349832 0.009918336 -0.028569676
000060 5e 30 b7 3c 67 37 13 3d 76 16 b6 bc 6a b7 34 bd
       0.02236193 0.035941508 -0.022227507 -0.04412023
000070 78 cd 9c bc 66 5b 1c bd 35 5e 0d bd bd 7b 3d bc
       -0.019140944 -0.0381731 -0.03451367 -0.011565146
000080 a0 12 3e 3d f3 23 c9 bc 85 7d b4 bb eb 1d 71 3c
       0.04640448 -0.024553275 -0.005508127 0.014716606
000090 93 32 93 3c 3e f4 15 bd 9c 0b d4 3c d6 8f 2f 3c
       0.017968452 -0.03660988 0.025884442 0.0107154455
0000a0 30 42 5d bc 11 7e 2b 3d 41 5a 1a bc 40 56 76 bd
       -0.01350455 0.041868273 -0.009420932 -0.06014085
0000b0 46 53 41 bd 00 fa 92 bc 8a 90 95 3d df 89 c2 ba
       -0.047198556 -0.017941475 0.07302959 -0.0014842114
0000c0 09 88 6f bd bf 21 0a 3c 31 3b f6 3c 86 8c 19 bb
       -0.058479343 0.008430897 0.030057522 -0.0023429706
0000d0 ae 19 3e bc 4d 2b 22 bd a6 cf 28 bd 65 14 d4 3c
       -0.011602802 -0.039592076 -0.041213654 0.025888631
0000e0 0e 72 fc 3b e6 b3 9c 3b 0d e3 0f bc ae 47 ae bc
       0.007704026 0.0047821878 -0.0087821605 -0.021274414
0000f0 5b f9 7a 3d 0e 0d 66 3d fb 40 b3 bc dc 07 db bc
       0.06127296 0.056164794 -0.021881571 -0.026737146
000100 74 f1 4b 3d d3 0c f1 bc 70 2c a5 3c 3e dd 1e 3d
       0.049790815 -0.02942506 0.020162791 0.03878521
000110 cc ad 0b bd 63 84 69 3b 0e 2e e3 bc 4c 00 aa 3c
       -0.034101292 0.0035631887 -0.027731922 0.020752095
000120 62 40 49 bd b9 32 06 3d 67 9c 1d 3d b5 f2 eb bc
       -0.049133666 0.032763217 0.038479235 -0.028802255
000130 91 1c f2 3b b6 aa c0 bc f9 0b a0 bc 22 b7 a6 3b
       0.0073886593 -0.023518901 -0.019536959 0.005087749
000140 28 c8 d3 3c 47 57 8a 3a 53 75 2d 3c e2 36 2e bd
       0.025852278 0.0010554575 0.010587054 -0.04253281
000150 44 21 a0 bc ed 21 a5 3b c2 72 48 bd 9e 9d 61 bd
       -0.019547112 0.0050394447 -0.048937567 -0.055081956
000160 e6 6d 47 bd 7d ae 34 bd 4e 1d 07 bd 34 e2 9b 3c
       -0.04868879 -0.044111717 -0.03298693 0.01902876
000170 d3 3a 58 bd 5e a7 28 bd 14 77 ca 3c 31 73 91 3d
       -0.052790474 -0.04117524 0.024714984 0.07102049
000180 81 69 95 3b 33 2b 0a bd 20 a4 38 3d ad a6 8b bb
       0.004559696 -0.033732604 0.045078397 -0.0042618127
000190 a1 34 03 3d 02 2f 68 3b e6 4b ca bb 9c 5d 3e bd
       0.032032613 0.003542841 -0.0061735986 -0.04647599
0001a0 95 a6 07 bd e5 03 ad 3c b0 79 43 bd d6 4d 4f 3d
       -0.03311785 0.021120021 -0.047723472 0.05061134
0001b0 0a db 85 bc 30 57 84 3c 2b 0b 1c bd d3 75 64 bd
       -0.016339798 0.016154855 -0.038096588 -0.05577643
0001c0 4d 13 56 bd 16 d1 0a 3d 2b 20 4e bd ed 79 b3 3c
       -0.0522645 0.033890806 -0.050323647 0.021908725
0001d0 a3 34 a3 3d b7 68 1b bd a3 4f 2d 3d d7 d6 4d 3c
       0.07969024 -0.03794166 0.042312276 0.012563429
0001e0 d9 0a c3 3c 7a 6b 36 3d a2 f2 4c bc 4c 1d aa bc
       0.023808884 0.04453609 -0.01250902 -0.020765923
0001f0 52 d7 11 3d 9c 6b 31 3d 41 f6 0c bd 1d 6c 86 bc
       0.035605736 0.043315515 -0.034414534 -0.016408974
000200 a8 b8 05 bd 19 c6 f0 b9 ca 38 46 bd a6 ca 08 bd
       -0.032646805 -0.0004592396 -0.048394002 -0.033396386
000210 ed 4c 21 3d a0 88 3e bd 65 da a9 bb 49 8a 78 bd
       0.039380003 -0.046517015 -0.0051835054 -0.060678754
000220 b7 8b 8a 3c 4e 0b cd 3c 1d 8c a3 bc 44 a0 54 bd
       0.016912324 0.025029805 -0.019964272 -0.051910654
000230 5c 97 bc bd 14 df 06 3d ea cb 0a 3c 7f 58 f4 bc
       -0.09208557 0.032927588 0.008471468 -0.029827354
000240 75 b4 f5 bc 13 69 f5 bc 29 75 26 bd 73 7f c9 3c
       -0.029993275 -0.02995733 -0.040639076 0.024596905
000250 02 35 d7 bc 25 9b 14 3d 37 0e 9a bc 31 a5 56 3c
       -0.026270393 0.03628077 -0.018805606 0.013100908
000260 0b c9 3d bb 4e e7 e5 3c 52 91 f6 bc 9a a6 a9 bc
       -0.0028958942 0.028064396 -0.030098591 -0.020709325
000270 20 33 00 bd 64 32 f0 bb 32 88 e7 bc 1e 1b 30 bc
       -0.031298757 -0.007330226 -0.028263185 -0.010748653
000280 22 5a 00 3d e4 9b be bc eb 2c 78 3c ae 29 d5 ba
       0.031335957 -0.023267694 0.015147428 -0.0016263032
000290 52 29 11 3c a0 28 66 3c a9 7d 4a 3c ad 3f cb bc
       0.008859949 0.014047772 0.012359061 -0.024810636
0002a0 f4 14 1f 3b 4a e8 b7 bc ab d9 9a bc 5c 2b d4 bc
       0.0024273964 -0.022449631 -0.01890262 -0.025899582
0002b0 dc 3a 55 3d 21 92 61 3d f8 e9 35 3d 2c ec 64 3d
       0.052058086 0.055071 0.044412583 0.055889294
0002c0 8c 16 12 3d 45 e3 48 3d 58 ee 86 3c 69 c4 55 bd
       0.035666034 0.049044866 0.016471073 -0.052189264
0002d0 fc 7d 27 bd fc 91 32 3c 06 9a e2 3b 59 7b c4 bc
       -0.040891632 0.010899063 0.0069153337 -0.023984598
0002e0 c9 bc 1b bd 98 b3 c4 bc 81 d5 c0 bc 30 ae 43 3d
       -0.038021836 -0.024011418 -0.023539307 0.04777354
0002f0 d7 b9 14 bd 31 02 d1 bb 0c 5d df 3b 13 fc 1e bd
       -0.036310043 -0.006378435 0.006816512 -0.038814615
000300 a5 39 cc 3c 33 1f 27 bd 7e ea 8a bd ec b5 77 bc
       0.02492983 -0.04080124 -0.06783007 -0.015119057
000310 90 d4 e0 bc 52 0e da 3b 3f d6 93 3c 54 65 dc bc
       -0.027445108 0.006654539 0.018046496 -0.026903786
000320 0c 80 2b bd 17 33 0b bc 87 37 3c bd 42 d9 17 3d
       -0.041870162 -0.0084960675 -0.045951393 0.037072428
000330 55 cb 46 bd 1f 15 cf 3c 7c 45 91 3c f5 1c 80 ba
       -0.048533756 0.025278626 0.017733328 -0.0009774255
000340 95 c7 e3 3b 43 9e e5 3c 84 80 77 3b 73 ab 0d 3c
       0.0069512823 0.028029567 0.003776581 0.008646834
000350 bd 20 40 3c 9d d5 1b 3c cb d6 ea bc a3 4a 2c bc
       0.011726555 0.009511379 -0.028666874 -0.010515842
000360 6f 91 a1 bc 85 36 b2 bc 7f 40 58 bb 8b a8 12 3c
       -0.019722668 -0.021754513 -0.0032997427 0.008951317
000370 59 0d f0 3c 95 bc ac bc d5 a3 21 bd ee 6c 1d 3d
       0.02930324 -0.021086017 -0.039462883 0.03843396
000380 7d 55 2f 3d 78 2d 43 bd 42 8d 86 3c 79 e5 a9 bc
       0.042806137 -0.047650784 0.016424779 -0.020739304
000390 11 d3 40 bd 35 df 49 3c 8d f9 37 3d 39 87 21 3d
       -0.04707629 0.012321283 0.044915725 0.0394356
0003a0 a1 40 d4 ba 88 78 14 bd 93 b7 08 bd 92 c7 92 bc
       -0.0016193577 -0.03624776 -0.033378195 -0.017917428
0003b0 16 97 ac 3c ad cb 77 3c 4c ee c5 3c f5 11 17 bd
       0.021068137 0.015124244 0.02416148 -0.03688236
0003c0 c6 3b 64 bb 6f bc 82 bd a8 1d 5b bc b2 18 dc bc
       -0.0034825667 -0.06383597 -0.01337377 -0.026867244
0003d0 53 59 77 bd d8 26 66 bd 37 c0 e6 bb ec d4 26 bc
       -0.06038792 -0.056189388 -0.0070419568 -0.0101826005
0003e0 41 09 49 bd 52 33 9e bc 36 48 51 bd de c2 87 bc
       -0.04908109 -0.01931158 -0.051094256 -0.016572412
0003f0 88 46 6b bc 67 a4 42 bb fc 92 8c 3d 4b f1 2d bd
       -0.014360078 -0.0029700042 0.068639725 -0.042466443

fc1.bias f4 [120]
000000 ba 48 9e 3c c3 ee 48 bd 7a c4 e0 bd 7a 87 df 3b
       0.019321788 -0.049055826 -0.10974975 0.00682157
000010 a7 b8 17 be 1f 2e 97 bc f8 b7 2c be 57 b1 2b 3c
       -0.14816533 -0.01845461 -0.16867054 0.010479293
000020 49 07 8c 3e 6c ab 5d 3d a9 e6 7f be 9c 42 6b bc
       0.27349308 0.05411856 -0.24990334 -0.014359143
000030 b7 fe dd 3d 93 72 35 bd ed 27 07 3e 3f d2 85 bd
       0.108395986 -0.04429872 0.13198824 -0.06534242
000040 f7 36 7e 3d 10 6d 80 3c cb 81 b4 3d 96 9a 3c 3e
       0.062064137 0.015677005 0.088138185 0.18418345
000050 4e 43 98 3d 79 b7 b8 bb 8e 15 96 bd 3b 55 2c 3c
       0.07434712 -0.005637106 -0.0732833 0.010518367
000060 41 ea 9c 3d 76 57 84 bd fb 14 e9 bc 96 3f 29 3e
       0.07661868 -0.06461994 -0.028452387 0.16528162
000070 b6 a0 6d 3d 2d 61 a2 3d 66 d3 eb bd f0 2d 88 bd
       0.058014594 0.07928691 -0.115149304 -0.06649387
000080 2c 66 15 3e 81 fa 3f bd f1 88 0b 3d 47 15 21 3c
       0.14589757 -0.04686976 0.034066144 0.009831733
000090 87 a8 9b 3d 76 20 01 3d 84 14 20 3c 78 ff c4 3e
       0.076005034 0.031525098 0.009770516 0.38476157
0000a0 74 c4 19 3d c2 3e e7 bc c9 d1 89 3d f0 3b 01 bd
       0.037540868 -0.028228167 0.067294665 -0.0315513
0000b0 37 23 35 bd 24 b9 4c 3c 98 61 df bd d2 4b a3 bc
       -0.044223037 0.012495313 -0.109072864 -0.019933615
0000c0 9d 9d dc 3d 04 8b 9b bd bf a6 70 3c c0 fc 77 3e
       0.1077225 -0.075948745 0.014688193 0.2421751
0000d0 e0 77 1c 3d ea bc e1 bd c5 03 0a 3e 57 fb e8 3d
       0.03820026 -0.110223606 0.13478 0.11376064
0000e0 fc 05 f1 3d eb 4a 36 bd cd a3 10 3e 98 69 b5 bc
       0.117687196 -0.04450504 0.14124985 -0.022145078
0000f0 2e 93 d4 3b 04 fc 6a bd f2 ba 1c 3e 85 f3 fe bc
       0.0064872717 -0.057369247 0.15305689 -0.031121979
000100 0e 1c 50 be 55 cc 22 3e 44 3d 38 bd 14 05 d8 bc
       -0.20323202 0.15898259 -0.044980302 -0.026369609
000110 a1 f6 1e 3d 8b 97 a3 3d 1a e7 8e bc c5 2f da 3d
       0.038809422 0.07987889 -0.017444182 0.106536426
000120 12 2b 95 3d da 50 59 3e a5 78 0b 3e 9a da b6 be
       0.07283606 0.21222249 0.13620241 -0.35713655
000130 2e 24 b2 3e bb d5 8a bd 81 07 b5 3d 19 dc 7c bd
       0.34793228 -0.06779047 0.08839322 -0.06173334
000140 ff 5e 3e 3e 55 4e 55 bd db 22 33 3c d1 c8 aa 3d
       0.18590926 -0.052076656 0.010933603 0.08339084
000150 44 d5 a3 3e ab f4 55 bc 69 37 7c bc fd fe 29 bd
       0.31998646 -0.013058822 -0.01539407 -0.04150294
000160 36 fc d6 3c 3c 2d 11 3e 12 4d 98 bd 5c d9 05 3e
       0.02624331 0.14177412 -0.07436575 0.13071197
000170 59 0c 05 3e fe 90 3c bd 66 bd 52 bd a5 03 45 bd
       0.12992992 -0.046036713 -0.051450156 -0.04809918
000180 2d 1d 5a 3d 83 8f be 3c 61 e4 0e 3d 44 ff 8d 3d
       0.05325048 0.023261791 0.034885768 0.06933454
000190 d8 0c 22 be b7 53 93 bd d7 f4 b1 b9 f9 1b 26 3e
       -0.15825212 -0.07193702 -0.0003394249 0.16221608
0001a0 f8 0d e1 3d 91 56 5d 3e 7e 8c b8 bd 26 e9 b7 bb
       0.109889925 0.21615054 -0.09011172 -0.0056125103
0001b0 08 d5 d2 3c be bd a4 bc 1b e3 76 3c a8 e1 0f 3c
       0.025736347 -0.020110007 0.015068795 0.008781828
0001c0 21 47 1a 3d 0e 6f 64 3e 73 ee 00 3e c1 70 42 bd
       0.03766549 0.22307989 0.12590961 -0.04747081
0001d0 af 65 07 3c dd 24 38 bd 3f 2c 2b 3d f7 5b f2 3c
       0.008263989 -0.04495703 0.041790243 0.029584868

fc2.weight f4 [84, 120]
000000 77 7a 81 bd 04 16 90 bd b4 27 31 bd 24 80 32 bc
       -0.063221864 -0.07035449 -0.043250754 -0.010894809
000010 d5 ab 08 be 4b 90 aa bd 67 5a 6c bd 1f 4e e1 bc
       -0.13346799 -0.08328303 -0.057703402 -0.027503071
000020 d0 5b 2a 3d 92 36 dd 3d 36 fa 43 3d 15 6c 0b bd
       0.041591465 0.10801424 0.04784604 -0.034038622
000030 73 cb 8c bb 9e 10 a2 3d 7a c3 21 bc 62 1d be 3d
       -0.004296714 0.07913326 -0.009873265 0.09282948
000040 8e cd 64 bc 27 18 c8 bd 17 54 64 3d 54 f1 c1 bd
       -0.013965024 -0.09770232 0.055744257 -0.09469858
000050 ea c0 17 be de 14 51 bd b0 c3 83 bd a8 96 9d bd
       -0.14819685 -0.05104529 -0.06433809 -0.07694751
000060 d1 ce 5d bd 6f 41 6c 3c eb 21 09 be 1c 9d 9c bd
       -0.054152314 0.014419897 -0.13391845 -0.07647154
000070 e4 27 a7 3d 50 40 84 3c e0 aa c0 bd 5d c1 80 3c
       0.081619054 0.016143948 -0.09407592 0.015717203
000080 2d dc 1d 3e 41 32 91 bd 8a 1e b2 3d d5 9d f8 3c
       0.15416022 -0.07089663 0.08697231 0.030348698
000090 3b 38 39 3e 46 1e 80 3c 2f 1f 24 3d e9 62 b9 bd
       0.18087856 0.015639435 0.0400688 -0.09052069
0000a0 38 2e 87 bd 52 47 3b bd 94 15 d6 bd be 35 be bc
       -0.066006124 -0.045722313 -0.104533345 -0.023218986
0000b0 4e 35 32 bd 1c 84 9f bd f9 dc 5c bd 39 26 2f bd
       -0.043507867 -0.0778887 -0.053921673 -0.04276106
0000c0 0e 55 31 bc c7 8f 18 3e 9e 0d 0b 3d 31 ef 90 bd
       -0.010823501 0.14898597 0.033948533 -0.07076872
0000d0 3f b8 46 3d 52 c4 cc 3c a1 92 51 3d c5 f2 8a bd
       0.048515555 0.024995957 0.051165227 -0.06784586
0000e0 e1 25 81 3c cd 05 43 3d 12 71 16 bc e7 57 8a 3c
       0.015765132 0.047612954 -0.0091822315 0.016887618
0000f0 c2 20 b7 bc bd 24 af bd 20 cf a9 bd 6c 4a 27 3d
       -0.022354487 -0.08551929 -0.08291459 0.04084246
000100 8e cb 3b 3d 2d 8b af bd f6 29 e1 bd eb ba ff bc
       0.04584842 -0.085714675 -0.109943315 -0.03121706
000110 1d e8 c1 bd 79 e2 b2 bb 65 f8 aa bc 2e 78 17 bb
       -0.094681 -0.0054591266 -0.020870397 -0.0023112404
000120 27 d1 87 3c 30 ff 6c bd c8 13 83 bc 05 1f fa bd
       0.016579224 -0.057860553 -0.016000643 -0.12212948
000130 a7 96 15 3d fd a5 09 3e af 76 a0 bd ab a3 24 bb
       0.036520626 0.13442226 -0.07835137 -0.0025121968
000140 0b b3 a5 bd 20 6c cf bc 6f ce 62 3b 2c a0 13 bd
       -0.0809079 -0.025320113 0.0034607907 -0.036041424
000150 6e 7e f6 3d 6d f0 a4 bd a0 0b 01 3d 4c 72 ce 3b
       0.12035833 -0.0805367 0.031505227 0.0063002463
000160 ee f8 1a bc d1 09 04 3e 9b 60 39 3d 0e 94 ae bb
       -0.0094587635 0.1289437 0.045258146 -0.005327708
000170 4a 27 cf bd 23 2b b8 3d c6 06 b1 bd 4b a6 8b 3c
       -0.10114916 0.08992603 -0.0864387 0.017047068
000180 f2 90 f7 bc 67 a4 21 be 60 b2 f5 3b 85 50 f5 bb
       -0.030220482 -0.15785371 0.0074980706 -0.0074864053
000190 8c 27 e5 bd 08 65 13 be 78 b4 64 bd 6e 37 38 3e
       -0.111891836 -0.14394009 -0.05583617 0.17989895
0001a0 9e 70 bb bd 54 ea 08 3e d8 72 5e bd 2b b4 16 3d
       -0.091523394 0.13370639 -0.054308742 0.036792915
0001b0 20 72 b9 3d 0a c9 5d 3d c1 71 9a bc 41 8d 27 3d
       0.09054971 0.054146804 -0.01885307 0.040906195
0001c0 ed f1 8b bd ff e3 97 3d c3 b7 a6 3d a1 f1 d3 bc
       -0.06833253 0.07416534 0.081405185 -0.025872054
0001d0 3e e9 29 bd f8 13 3a 3d c6 6c ea bc 5b 8f c3 3d
       -0.041482203 0.0454292 -0.02861632 0.09548827
0001e0 52 f0 27 bc 63 25 25 3c 80 9d 07 bb c6 f5 8c 3d
       -0.010250168 0.0100797145 -0.0020693243 0.06882815
0001f0 86 3c c3 bd db 81 95 3b 77 b4 21 3c 94 48 c2 bd
       -0.09533028 0.004562599 0.009869686 -0.094864994
000200 a3 e6 d3 bd 40 b2 99 3d 58 b6 bf 3c ba ee 7d bd
       -0.10346725 0.075047016 0.023402378 -0.061995246
000210 cc f1 ab bc 9a c4 b5 3c 55 9f 3f 3c 6e eb a7 bd
       -0.020989321 0.022188473 0.011695703 -0.081992015
000220 71 73 c1 3c 5c 53 7e 3d 59 6f db bb 12 c4 87 bd
       0.023614617 0.062091216 -0.0066966233 -0.06629194
000230 f1 56 35 bc 9a 20 64 3c 49 e5 2d 3d f3 56 35 bd
       -0.011068092 0.013923788 0.04245499 -0.044272374
000240 58 82 53 bd 7c 35 32 bd 33 3b 05 bd e5 12 75 bd
       -0.051637977 -0.043508038 -0.03252716 -0.059832472
000250 12 4e 99 3d e4 cb 9b bd ba 71 57 3c b6 f5 64 bd
       0.07485594 -0.076072484 0.013149673 -0.05589839
000260 d2 26 3d bd f1 df ac bd 1e c9 33 3d b6 fa a2 3d
       -0.0461796 -0.08441151 0.043892972 0.079579756
000270 eb 1b a1 bd ca 71 99 bd fd 45 88 bd 40 c3 d7 bd
       -0.07866653 -0.07492407 -0.06653974 -0.10535288
000280 ce 2a a4 bd 0f ce 8d 3d 48 69 fc 3d f2 2b 91 3c
       -0.08015977 0.06924068 0.12324768 0.01772115
000290 d3 c8 72 bd 05 d3 84 3d 24 8b bf bd ae 6c 39 3d
       -0.059273552 0.06485561 -0.09352711 0.04526966
0002a0 b4 c3 b1 bb 22 1d a0 3d 1b 76 58 3d d7 61 43 3d
       -0.005424941 0.07818057 0.05284701 0.04770073
0002b0 f5 54 16 bd cb 67 8e 3d 13 c0 6a 3d bc 6d b1 bd
       -0.036702115 0.06953391 0.057312082 -0.08663508
0002c0 72 e0 75 bd d5 6e 15 bd 9d f6 bc bd f3 a5 4a 3d
       -0.0600285 -0.03648265 -0.09226725 0.049474668
0002d0 48 9b 80 3d 7e f6 c4 3d c7 40 88 bd 24 7d 1d 3d
       0.062796175 0.09617327 -0.0665298 0.03844942
0002e0 f4 ce 12 3d b5 01 f6 3c d7 fb bb bc b6 35 c1 bd
       0.035841897 0.03003011 -0.022947235 -0.09434073
0002f0 ad fa d0 3c 94 46 fa 3c c9 80 25 3d 7b 42 d1 bd
       0.025510157 0.030551232 0.040406022 -0.10217758
000300 fa 77 a3 bd 6b d7 04 bd b4 59 22 3d 01 f0 4b 3d
       -0.07981868 -0.032432 0.03963633 0.049789432
000310 b0 0a 8e 3d 23 b9 7b 3c 7b c8 a7 bd 42 d0 e1 bd
       0.06935632 0.015363964 -0.081925355 -0.1102605
000320 5c 03 56 bd 22 2b 11 3d ad 9d 96 bd bb f8 d0 39
       -0.052249297 0.035441525 -0.07354293 0.0003985817
000330 b2 33 2e 3d bd 18 72 bd 96 dd 65 bd 9d f1 c6 bd
       0.04252977 -0.059105624 -0.056119524 -0.09714053
000340 84 db 0d 3d 91 0d a8 3b 91 a6 9d bb 7d 22 41 bd
       0.034633175 0.0051285704 -0.004811116 -0.04715203
000350 1d 7f f0 bb 42 bf 38 bc b7 8a 33 3d 10 77 92 bd
       -0.007339372 -0.011276068 0.04383346 -0.071516156
000360 df c5 b2 3d 6b 33 c0 3a 3e f8 11 bd 7c dd 9a bc
       0.08729147 0.0014663761 -0.035637133 -0.01890444
000370 44 29 3b bd 56 bf be bd 09 f5 cf 3d c7 0f a2 bd
       -0.04569365 -0.09313838 0.101541586 -0.079131655
000380 a3 90 8f bd bb 62 c9 3b 1b 1c c6 bd d2 72 d4 bc
       -0.07010009 0.006145803 -0.096733294 -0.025933657
000390 fb 87 8f bd 51 d1 7e bd b7 17 fd 3c 44 ab 85 bd
       -0.07008358 -0.06221134 0.030895097 -0.06526807
0003a0 d3 02 a1 bd 91 ec 47 3c cf 0b b7 bd c7 e7 83 bc
       -0.07861867 0.012202398 -0.08937799 -0.016101731
0003b0 02 22 8c 3c 9a 1e 3e bd 58 06 39 bd dd c1 6a 3c
       0.01710606 -0.046415903 -0.045172065 0.014328447
0003c0 be 29 86 bd ff 40 ab bd dd 07 8c bd e3 68 93 bd
       -0.065509304 -0.083620064 -0.06837437 -0.0719774
0003d0 1a 2f 72 bc fb f0 d2 ba ca f9 ae bd 8c 53 b2 bc
       -0.014781738 -0.0016093546 -0.08543737 -0.021768354
0003e0 a2 c4 03 3e 7b f4 a9 bd e9 56 25 be c4 26 4e 3d
       0.12867978 -0.08298584 -0.16146435 0.05032994
0003f0 f7 62 e4 bd 8d 4d 2b be cd 39 e4 bc 17 c2 a5 3d
       -0.111516885 -0.16728802 -0.027859593 0.0809366

fc2.bias f4 [84]
000000 19 5d 69 3e 21 78 5b bd ab bd c7 3e 94 31 45 3c
       0.2278942 -0.05358136 0.39011893 0.012035746
000010 0c b9 81 3b 10 cf bf bd eb e3 5e 3f cc 5f 84 3e
       0.003958827 -0.09365666 0.87066525 0.25854337
000020 39 f1 3e bd e8 88 6b 3c a2 e2 12 3f c5 43 43 3e
       -0.046616767 0.014375903 0.57377064 0.19068821
000030 57 ba e3 bd 8d 85 7d bd bf 01 e7 3e b7 45 a2 3c
       -0.11119526 -0.061894942 0.4511852 0.019808633
000040 5b 18 39 3e e2 e2 cc 3d 8f b8 74 3e 6d 7e 8c 3e
       0.18075697 0.10004212 0.23898529 0.27440205
000050 d3 7d ba 3d 10 09 1d bd cc 9b ad bd e7 5f a4 bd
       0.0910603 -0.03833872 -0.084769815 -0.080261044
000060 db bb 80 bd 7b 2c a7 3e a1 18 c8 3d 3d 7f 40 bd
       -0.062858306 0.32651123 0.097703226 -0.046996344
000070 5b 71 9c 3c d5 0e 4e 3e 64 92 ec 3c 27 41 5d 3d
       0.01909702 0.20122845 0.028878398 0.054017212
000080 ec 46 37 3e cc 6c 4c 3e 34 10 1c 3e 2e 0f d1 3c
       0.17898148 0.19963378 0.15240556 0.025519934
000090 e0 69 25 3e 4d 52 e2 3d 2c 34 5f 3e a2 eb a8 bd
       0.1615367 0.11050854 0.21797246 -0.082480684
0000a0 c8 fe 81 bc 6c e3 73 3e e0 9b 0a 3f af df 65 3e
       -0.01586856 0.23817223 0.54144096 0.2244861
0000b0 38 e3 69 3e 5b 1e 29 3e 3a f5 30 3d ce 58 3c bd
       0.22840583 0.16515486 0.043202616 -0.04598313
0000c0 53 5f 1b 3d 34 32 a2 3d 54 d7 8d bd bd 65 7c bd
       0.037932705 0.07919732 -0.06925836 -0.061620463
0000d0 54 cf a5 3d e0 dd 17 bd 0f 76 1b 3f ec bb 16 3e
       0.08096185 -0.03707683 0.6072702 0.14720124
0000e0 5c b8 05 3b 57 cb fa bd ca da 9d bc b5 1e cf bd
       0.0020404076 -0.12245815 -0.019269366 -0.10113279
0000f0 b9 29 1d 3e 42 0f 69 3e 26 f8 ad 3d ed a7 a7 3d
       0.15347947 0.22759727 0.08494596 0.08186326
000100 d0 c5 05 be e6 bd bb bd 1b 2c 88 bd 7e 0e b9 bd
       -0.1306374 -0.0916708 -0.066490375 -0.09035967
000110 ed 96 de 3e bc 88 dc 3e 25 7c a0 3e f6 3e 11 bc
       0.43474522 0.4307307 0.31344715 -0.008865109
000120 0a 8f 17 bb 1b ab d9 3d 8c 0d b2 bd e5 c0 c4 3e
       -0.002312603 0.10628339 -0.0869399 0.38428417
000130 2e 25 19 3e 56 32 60 3e 0e 0b c6 3e 23 20 55 3e
       0.14955589 0.21894202 0.3868031 0.2081304
000140 42 48 98 3d a9 85 14 bd 33 59 4f 3e 88 df 17 3e
       0.07435657 -0.03626028 0.2024887 0.14831364

fc3.weight f4 [10, 84]
000000 a0 b4 d0 bd 85 a2 36 bd 79 a7 f7 bd 41 0e 20 3e
       -0.101907015 -0.044588584 -0.1209249 0.15630437
000010 a9 e7 99 3d 17 28 f1 bd de 87 a5 be ae b7 3a 3e
       0.07514889 -0.11775225 -0.3233022 0.1823413
000020 1f fe 10 bd 24 db 9b 3c 55 0a 53 be 41 66 66 3e
       -0.0353986 0.019025393 -0.2060941 0.22499944
000030 f7 8a 18 bd cc 3f 3e 3d c0 03 df bd 40 69 18 3d
       -0.037241902 0.04644756 -0.10889387 0.03720975
000040 6f 92 75 be 2a e2 3d 3d 30 d5 98 3c 34 bb 38 3e
       -0.23981641 0.046358265 0.018656343 0.18040162
000050 bb 3a d8 bd 32 c3 c9 bb b7 02 ac bd 79 29 db 3d
       -0.10558077 -0.0061573023 -0.08398955 0.1070127
000060 ba 30 2a bc 35 38 3c be 07 ed 42 3e ed f5 d6 3d
       -0.010387594 -0.18380816 0.19035731 0.10496125
000070 81 56 3a 3e 56 d4 34 3e f7 99 71 3e 7b 6f 18 3d
       0.18197061 0.17659125 0.23593889 0.03721569
000080 0e 4d f8 bd a5 ce dc bd c9 cd 47 3e 82 94 ab 3d
       -0.12124072 -0.10781602 0.19512095 0.08377935
000090 6d 2a 1b bd 12 58 84 bd 8a 37 f7 3d ca 18 d9 3d
       -0.037882257 -0.064621106 0.1207114 0.10600431
0000a0 10 38 66 bd c1 53 a6 3c ab 00 b5 be 4e d0 8a 3e
       -0.05620581 0.020303609 -0.35352072 0.2711205
0000b0 50 d5 14 bd 1c a5 35 3d d3 4d 09 bd 18 75 43 be
       -0.036336243 0.044346914 -0.033521485 -0.19087636
0000c0 5a a3 20 3d 97 58 07 3e dc a5 28 be 24 25 1d 3e
       0.039218284 0.13217388 -0.1646952 0.153462
0000d0 52 3b 8a bd fa 76 ea 3d 69 0a e5 bd 8a bc a3 3e
       -0.06749596 0.11448474 -0.11183626 0.3197978
0000e0 8b 1f 2d be 1f d6 c9 bc fd c0 8c bd 01 93 82 3e
       -0.16906564 -0.024638234 -0.06872747 0.2550278
0000f0 c4 9c d3 3d 91 f4 27 be a3 94 55 3d 97 12 d1 3d
       0.10332635 -0.16401888 0.052143704 0.10208624
000100 85 a0 9c 3d 40 2f d6 3c 77 a6 2b bd dd 50 44 bd
       0.07647804 0.026145577 -0.0419068 -0.04792868
000110 eb 95 07 3d 02 6a cf 3d 5f 21 8d 3e f7 66 05 be
       0.033101957 0.10127641 0.27564523 -0.13027559
000120 59 1f 69 bd db 11 d5 bc 58 d8 84 bc 86 bf c8 3d
       -0.05691466 -0.02600949 -0.016216442 0.09802155
000130 ae 5b 2e 3e c1 f2 0b 3e 92 94 69 3e 71 f3 64 3c
       0.1702716 0.13666822 0.22810581 0.013974057
000140 9e 30 01 be fe 51 56 be 2e c4 16 be 5f 42 3b bb
       -0.12616202 -0.20929715 -0.14723274 -0.0028573496
000150 91 38 86 bd 5a 6c d1 3d 1d 98 81 bd fa 4c 9f bc
       -0.06553758 0.102257445 -0.063278414 -0.019445885
000160 84 d1 48 3e 21 14 76 3e 82 55 96 be 44 a8 4d 3d
       0.19611174 0.24031116 -0.29362112 0.0502093
000170 be 33 20 bd 68 20 3b 3d 16 cb 1c be c5 e2 09 3e
       -0.039111845 0.045685202 -0.15311846 0.13465412
000180 0a 30 5b 3d 86 52 a5 3d 07 38 0b be 78 5e 32 be
       0.05351261 0.08072381 -0.13595591 -0.1741885
000190 84 69 64 be 25 fe 94 3e f1 1a 81 be 72 70 2c be
       -0.22305876 0.29100147 -0.25215867 -0.1683977
0001a0 53 f0 a1 3d 5c 7c f8 3b da 77 ae 3d b3 3f 7f bd
       0.07907166 0.007583184 0.085189536 -0.062316608
0001b0 c4 17 b6 bd 01 99 ae 3d b4 53 7f 3c a6 47 d3 bc
       -0.08891252 0.08525277 0.015583921 -0.025791
0001c0 c2 53 2e be de 04 1a be 89 c2 1c bb 0d b4 ab 3e
       -0.17024139 -0.15040919 -0.0023919663 0.33535805
0001d0 ee b9 80 3d c7 2e 52 be 9e 92 3c be 50 6d f1 3d
       0.06285463 -0.20525657 -0.18415305 0.11788428
0001e0 46 ed 1b 3e d2 6a cb bd 73 84 05 be 4e 1a 0d 3c
       0.15227231 -0.09932484 -0.13038807 0.008612229
0001f0 63 57 da 3d 80 97 09 be bc c9 66 be 50 62 3f 3e
       0.10661199 -0.13436699 -0.22537893 0.18689847
000200 f0 72 6b bc 02 b4 17 bd c0 78 17 3e 93 d7 40 bc
       -0.014370665 -0.037036903 0.14792156 -0.011770147
000210 ef a4 02 3e 0d f2 52 be cf 39 1e 3e 7b f8 19 3e
       0.1275823 -0.20600148 0.1545174 0.15036194
000220 82 5a 08 3a 7b 62 2e 3e ea 4a 8b be 61 28 9c bd
       0.0005201475 0.17029755 -0.27205592 -0.07624889
000230 d0 a7 41 3e ce 97 64 3e 24 a5 79 3e b3 07 32 be
       0.18911672 0.22323534 0.24379402 -0.1738575
000240 0e 47 21 3e 6e 4b 97 bd a3 4f 2d bb 68 54 7a 3d
       0.15749761 -0.07387434 -0.0026445172 0.061115652
000250 32 3e 93 3e f6 21 08 3d ae 64 04 bd 1c c5 86 3e
       0.2875839 0.033235513 -0.032322578 0.26322258
000260 b6 4f 5c be 5c 82 a8 be 12 1c 34 be c0 b7 49 3c
       -0.21514782 -0.32911956 -0.17588833 0.012311876
000270 08 8a 8a bd 31 50 45 3d 0c 26 d6 3d 4d 84 f5 be
       -0.067646086 0.04817218 0.104564756 -0.479525
000280 51 c3 8f 3e 97 5e a5 3e f1 99 69 3c f2 6a 61 bd
       0.28078702 0.3229873 0.014257894 -0.05503363
000290 fc 8c 24 3d 58 39 8b 3e fe 59 c1 3c 0e 35 40 be
       0.040173516 0.27192187 0.023602482 -0.18770239
0002a0 a2 30 82 bd 8a 32 28 3e c6 f9 69 3e ff 3a a6 3d
       -0.06356932 0.16425529 0.22849187 0.08116721
0002b0 f2 a0 1b be 9b 30 fb 3c 34 5a 9f 3e d2 9a b1 3d
       -0.15198115 0.030662825 0.31123507 0.08672108
0002c0 74 7d 92 bd 85 ac 74 bc 4a 7a b8 bd a4 0d 68 be
       -0.071528345 -0.01493371 -0.090077 -0.22661453
0002d0 a0 3a e4 bc 99 df e9 3c 16 e5 02 be 72 d8 06 3e
       -0.027859986 0.028549002 -0.12782702 0.13168505
0002e0 17 91 02 3e a3 be 9a be 01 95 ed 3d 6c 11 34 3e
       0.1275066 -0.3022357 0.11600686 0.17584771
0002f0 b4 c9 3b be 51 4a bc 3d 67 5d 16 3e 23 ad a3 3d
       -0.18338662 0.09193862 0.14684068 0.079920076
000300 42 d0 1d 3e 6b a6 4f 3d 9e 0b b0 bd 8d 42 28 3e
       0.15411475 0.050695818 -0.08595966 0.16431637
000310 fe c7 d4 3d a0 9c 80 3e 83 69 26 3e cc be eb bc
       0.10389708 0.25119495 0.16251187 -0.028777502
000320 f6 1a f6 bd d2 09 58 3e 1b 0e dc bd c9 35 42 3c
       -0.12016861 0.21097496 -0.10744878 0.011853644
000330 96 0e 2b be 5d 9d ca 3d 54 83 d8 3d f7 84 49 bd
       -0.16704783 0.09893296 0.10571924 -0.04919907
000340 77 98 d4 bc 1e 8a 43 3e 41 61 4b 3d 81 3e 00 be
       -0.025951607 0.19095656 0.049653295 -0.12523843
000350 af 7b 07 3d 0d ea 5b be 5a a3 55 3d 5b 6d 80 bc
       0.03307694 -0.21476002 0.052157737 -0.015677145
000360 6a 7f cb bd db 80 e2 bc 43 63 ea bd 02 ee 13 3e
       -0.09936412 -0.027649334 -0.11444714 0.14446262
000370 6b b7 9f bd c1 71 93 3c 1d 38 b7 3d 5c ff 9e 3d
       -0.07798656 0.017998578 0.0894625 0.0776355
000380 0c a5 c6 3d d0 4d 72 3e b6 99 ce bd 2e 4b c8 3d
       0.09699449 0.23662496 -0.10087912 0.097799644
000390 09 e5 c2 3d c0 42 c7 bd 16 31 37 be ef 74 f0 3c
       0.09516341 -0.097295284 -0.17889819 0.029352633
0003a0 26 b6 ad b9 dd 0e f7 3d 9e 43 07 3e 47 46 f7 bd
       -0.00033132843 0.12063382 0.13209388 -0.12073951
0003b0 6e a5 71 3e c3 da 55 3e 92 1c c7 3d 9b ee ce 3d
       0.23598263 0.20884232 0.09722246 0.10104104
0003c0 25 43 2a 3e 14 7a 9f bc 88 f3 17 3d f2 8a 66 3e
       0.16627176 -0.019467391 0.037097484 0.22513941
0003d0 10 46 00 3c cc 52 07 be 0b 13 00 be 83 14 0b be
       0.007829204 -0.13215178 -0.12507264 -0.13582043
0003e0 c7 2d 89 3e 36 59 92 3d 81 8b 51 3e 64 c2 f8 3d
       0.26792738 0.07145922 0.20463373 0.12146452
0003f0 84 59 17 3e 0b 4f 69 bc bf 86 ed 3d 06 8c 46 3d
       0.14780241 -0.014240037 0.115979664 0.04847338

fc3.bias f4 [10]
000000 af 6a 6a be 4a 97 57 bf 6d 22 49 bd 7b f9 13 3f
       -0.22892259 -0.84215224 -0.049105097 0.5780255
000010 4d 7e 15 3f 28 57 a3 3c d8 1b 48 3e 5d 66 9f be
       0.58395845 0.01993902 0.19541872 -0.31132784
000020 ce c2 b4 3e 91 21 f7 bb
       0.35304874 -0.007541843
